model.npz (npz, 97068 bytes, 4 tensors)

layer_1_weights f8 [15, 784]
0	0x3ffbbb362a726c59	1.7332059534153557
1	0x3fe11b6c4ca59e71	0.5345975396166535
2	0xbfbf8edf42114b60	-0.12327380526521159
3	0xbfc993f0c42e312a	-0.19982728556750234
4	0x4001b138bcf65472	2.2115340006517323
5	0x3fb520715ea7c23e	0.08252628861351582
6	0xc004590b81aa656b	-2.543478978169039
7	0x3fddcc8b60a33366	0.46560940205818324
8	0x3fd56398e073a3bc	0.3342039291297245
9	0x3fee710dabfa59f8	0.9513004645294236
10	0x3fc0908aad6a132d	0.12941106288430984
11	0x3fe1153df714afb9	0.5338430238530157
12	0x3ffc0ab70f4c902e	1.752615985643398
13	0x3fc804adce6acf8d	0.18764278964010508
14	0xbffa53465a0ba625	-1.6453307645227906
15	0xbf811553f9c65884	-0.008341461238881694
16	0xbfe947fe4b36ca29	-0.7900382489227172
17	0xbfdfce3009832432	-0.49695969513828964
18	0xbff2b89be2cb8c4f	-1.1700705393966648
19	0x3ffd5e4d941b0cb2	1.8355232034089508
20	0xbffd788df2db6ebd	-1.8419322477920297
21	0x3ff3638b0d27408f	1.2118025316049488
22	0x3fab57b65d2660f8	0.05340356719097089
23	0xbfe96e9ef7505021	-0.794753535303702
24	0xbff3c49ed9b7f734	-1.2355030541070393
25	0xbff788180679a214	-1.4707260373053304
26	0x3fb9d7924590dad9	0.10094560812363386
27	0x3fe0de514ca00520	0.5271383759101447
28	0x3fe7749f707479db	0.7329861828218854
29	0x3fd4f55f36ad6cda	0.3274763139686009
30	0xbffab73764b51089	-1.6697305616262688
31	0xbfd14d023a1c41da	-0.27032523798791674
32	0xbfead2261c41be3c	-0.8381529380694199
33	0x3ffb106361d06fcf	1.6915010281436371
34	0xbffb8f59df4dbc94	-1.7224978182601136
35	0xbfe6b8cec204a806	-0.7100595273416281
36	0x3fe41165f07d37d7	0.6271238038113961
37	0xbfb5ed45539c8322	-0.08565171519559248
38	0xbff9585abf54affd	-1.5840709184512882
39	0x3fb33bace9023f87	0.07512932480517352
40	0xbfe79a044854d282	-0.737550870201247
41	0x3fdbd1c9037bd1dc	0.4346792730350708
42	0x3fd6a6d89d6207dc	0.35393348092486376
43	0x3fcb01979648140f	0.21098608816115003
44	0xbfb79b13ee094e12	-0.09221005021509424
45	0xbfe0991921d98829	-0.5186887417914977
46	0xbfdf312f1611fffb	-0.48737694888404776
47	0xbfd9ff171df0f14e	-0.40619447635596806
48	0x3febdc3a26cb7289	0.8706331975659661
49	0x3ff3db257cbced6b	1.2410025475099598
50	0x3ff7dd7b31bb3186	1.4915725653291658
51	0xbfd4ada4e108d627	-0.32309839225794906
52	0x3fdb80d054ba58d0	0.42973716997347555
53	0xbfe7810c8ab310bb	-0.734503050706301
54	0x3fe690aa548570ac	0.7051593447499918
55	0xbfe28c97904079ad	-0.5796621148509097
56	0x3fd17deeed17b7c6	0.27331135896281145
57	0xbfd1e7632a6bfd16	-0.2797477640414895
58	0x3ffb31637124c5a0	1.6995577258752306
59	0x3ff51c625d2c33e9	1.3194297446782406
60	0xbfe7fb831f91b0c0	-0.7494521729072616
61	0x3fd80982f5529fb6	0.3755805392961479
62	0x40035564cc98fc4c	2.416696165484188
63	0xbfc784e6ecf9abbb	-0.18374334879930906
64	0xbfe72c36dd3d755a	-0.7241472550482897
65	0x3fd392237350ea59	0.3057945848592332
66	0x3fe9d85e3d8253b6	0.8076621247624789
67	0xbfde4eaa400a4e50	-0.4735513329880847
68	0x3fcf1466ed8a87fe	0.2428101215237461
69	0x3ff3c431c53a9366	1.2353990272760824
70	0x3fe075461486d453	0.5143156433974901
71	0xbfe945dccb9f1ac5	-0.7897781350119081
72	0xbfccbaa40063c555	-0.2244458200362184
73	0xbff7b56ee175369b	-1.4817951971957999
74	0x3ff2df4c26af23fa	1.1795159827327084
75	0x3fe875bdf164bc75	0.7643727984158334
76	0xbfd585bc05dc3248	-0.33628750393180384
77	0x3ff7b2e111dacb8b	1.481171674485014
78	0xc000d302d61552dd	-2.1030327534921143
79	0x3fe642af6be01686	0.6956402880611712
80	0x3f70f8c3b79ab8a9	0.004143490333872326
81	0xbff2a99f582d2ace	-1.1664117283241242
82	0xbfc642fcb54c69a5	-0.17391928532090364
83	0x3fd8f2e193ca10f0	0.38982428963232874
84	0xbff049977f068648	-1.0179667436535897
85	0x3fced7ebc8989161	0.24096438688969626
86	0x3fbd612383b1bbe3	0.11476346936409203
87	0x3fe8756a2f8a17d0	0.7643328598503505
88	0x3fe1ca4a166555a2	0.5559435307902059
89	0x3ffba4642980ec44	1.7276345845446182
90	0x3fe4d173126a786e	0.6505675658879804
91	0x3fee9a78b7816665	0.9563563903895554
92	0x3fee7c967ed11fe7	0.9527084805386011
93	0x3fd7549b6e9f5a3b	0.36453901102996483
94	0xc002e6aea97479bb	-2.3626378287001137
95	0x3fdde82110dc0659	0.4672930397647171
96	0x4003f049f978bff3	2.4923285951590457
97	0x3fd31128b128d705	0.29792229939208453
98	0xbfcadca1c24500d5	-0.2098581503469236
99	0x3f81dc7bb0f6baeb	0.008721319520956302
100	0x3fd3ea21b257c953	0.3111652604703938
101	0x40033ac0a99fcb31	2.40368778723623
102	0x3fce8f06bba527b0	0.23873981630668828
103	0x3fc00bb6b89c8c2b	0.1253574754165084
104	0x3ff03b63817f118b	1.0144991930438632
105	0x3ff0b100252348ce	1.0432130289741965
106	0x3fe8278a704be2a4	0.7548267548837271
107	0xbfdbf9e4a9d9da93	-0.4371272715283478
108	0xbff0687bc39eb1fc	-1.025508655681846
109	0xbfc64aaa6e7ddc64	-0.17415361781215488
110	0xbfe8c1bb65e16df6	-0.7736489286284598
111	0xbfd4520dc885e862	-0.3175081690056968
112	0x3fa01b7dd525e437	0.031459743756336804
113	0xbfc42fc1514c1397	-0.15770737142170496
114	0xbfdf893359093448	-0.4927490586749781
115	0xbfcd75152cc3590b	-0.23013558088013783
116	0x3fe1c5bad76d68a2	0.5553869445386861
117	0x3fed41f24dee08d6	0.9143001100603907
118	0x3ff0ca9e63cfd1ae	1.049467458619897
119	0xbfe0407496f5d160	-0.5078680942956844
120	0x3f92c6970f48f242	0.018335686023635007
121	0x3ff249a31094618c	1.1429777763024473
122	0xbfb82507104aa23f	-0.09431499622099525
123	0x400139fda39dc085	2.153315809489927
124	0x3fceffa3ae3d8b7a	0.24217649467308516
125	0x3fdc541d11f2edec	0.44263388398004966
126	0xbfbec59eeab09645	-0.12020295362216256
127	0x3fe4dfd89c576c75	0.652324967722406
128	0x3fdbc7ac0e7abb2d	0.43406201757436486
129	0x3ff1e9121c23377e	1.119402036583295
130	0x3ff160bdc7331ca7	1.0861184865223465
131	0x3fe1ce64c9d5f921	0.556444544039355
132	0x3fd0e33ca5d12ee0	0.2638694400127246
133	0x3ff22c8665616765	1.1358703575301317
134	0xc000fdedc1dc0eed	-2.1239886422425713
135	0x3fcbe23dbdf89a4c	0.21784183288510162
136	0xbfe71e43eb337803	-0.7224444955606945
137	0x3fe1b3ce775ab12e	0.5531990367067345
138	0xbfde34b496fe259e	-0.47196688409220566
139	0xbfe71e4c4c9bb680	-0.7224484916930152
140	0xbffef2eac561e7af	-1.9343059263469333
141	0xbff932d8103cfa9f	-1.5749130853943496
142	0xbff95c33f67c9e1e	-1.5850104931249756
143	0xbfe10a2675920524	-0.5324890419289301
144	0x3fe03ef16574f53c	0.5076834661082681
145	0x3fe0104ea2e0aa0d	0.5019906216815017
146	0x40049965110368c5	2.5748998002210066
147	0x3fdff28deb325cb5	0.49917934387617474
148	0x3fe6e5e8a8b25bf2	0.7155650420053219
149	0x3fe171062fe9ec19	0.5450468955817797
150	0x3fec245dbf2777db	0.8794392331581052
151	0xbffa8c01314debe1	-1.6591808248474467
152	0x3fe1f36237db33c7	0.5609599200193934
153	0xbfcb8c6736b2369e	-0.21522226496420144
154	0xbfe49989380d6c7e	-0.6437421889089732
155	0xbfccc8c917e139d0	-0.2248774878120927
156	0xbfcc7ce1c118155f	-0.22256109169408497
157	0xbff2a3633f3892ec	-1.1648895711488718
158	0xbff4d21d4929ad14	-1.3012974603578344
159	0xbfd691e1f93e8c07	-0.3526539739634135
160	0xbfe429e8639a65c0	-0.6301156945584623
161	0x3ffd09e39b0a1fad	1.8149143272621402
162	0xbfe9837cf52c2bf0	-0.7973007954145697
163	0xbfcd6f21b22eb946	-0.22995396805112928
164	0x3ff9c039ad8bac3c	1.6094300059437634
165	0x3ffb9e7f1c67733f	1.7261954412017102
166	0x3fc5496b4ec51137	0.16630307527715057
167	0xbff28bd185a64c0c	-1.1591353626906793
168	0x3ff89584d9db734a	1.5365036497161833
169	0xbfcd55cab29e5fff	-0.22918065759290582
170	0xbfb8b7ad7f9682f2	-0.0965526997083648
171	0x3fdf61388935ccb9	0.49030888938359457
172	0x3fcab97ccc335ae9	0.20878562899334632
173	0x3feb7b93e7345140	0.8588351741514444
174	0x3ffe9e54b90cf17d	1.9136550167596333
175	0x3fe645c37961c0e1	0.6960160608996625
176	0x3fff5d669cea3dd6	1.9603029374592231
177	0x3fea1eaaa1b10057	0.8162434728656177
178	0xbfdaf831d57e9919	-0.42139860009264535
179	0xbfd23ed35ea5c3b1	-0.2850845741550599
180	0x3ff02522809eb2f8	1.0090661071982918
181	0x3ff239c1538ee1ec	1.1391003860463753
182	0xbffdddb2841f6be0	-1.866625324348881
183	0xbfe379f014f761a1	-0.608634987783308
184	0x3fef3b9f2b4113dc	0.9760280461128974
185	0xbfe5d29942f8d2a6	-0.6819578464552094
186	0x3fcd6c202227bd0a	0.22986222903953318
187	0xbfc572370480ff4f	-0.16754806251446516
188	0x3feae0a72b0285a6	0.8399234619175118
189	0xc002a2b587aded2c	-2.3294478034928456
190	0xbfa78e44f891a842	-0.04600730451859693
191	0x3fcf3176fc408be0	0.2436970454883456
192	0xbfd0457ea980b3e4	-0.2542416243839496
193	0xbff7db3752dae285	-1.4910195576214005
194	0x3fd37a12167122ce	0.3043256014976067
195	0xbff635bf7c8cc058	-1.3881220689036322
196	0x3fc53bc7ff4fcb5a	0.16588687864676893
197	0x3fe633da7298b758	0.6938297498906918
198	0xbfe500a1814c097c	-0.6563270116169373
199	0x3fe42879edd4dd55	0.6299409527918366
200	0x3ff1ac915bad6aeb	1.104630811800855
201	0x4006024cbb24c9eb	2.7511229153253587
202	0x3fb36260a92e085d	0.07571987276426868
203	0x3fc85fa936671c2f	0.19041934162507476
204	0xbffbde1d7cab1246	-1.741727339730589
205	0x3fc78adbb6e30ddb	0.18392511777902495
206	0xbf97fba892aa32f2	-0.023420938445769708
207	0xbffbcf70e73939bd	-1.7381447822732377
208	0x3ff3260b8a37f179	1.1967883490716231
209	0x3fbe44ccef55e169	0.11823731272841588
210	0x3fee745cc6170971	0.9517043942399096
211	0x3fdd210b585e6b9e	0.455141865060506
212	0xbfede67d4f4720c1	-0.9343859241862661
213	0x3fff1a35cdfe9cd0	1.943898968378381
214	0x3fe2e85e3442134a	0.5908652325311803
215	0xbfdf58e7c6e68712	-0.4898013536822968
216	0x3feacc6d01d719af	0.8374543224279501
217	0xbfe7a1b8a14f1360	-0.7384913588108297
218	0x3f99479aec1eb925	0.024687214528676855
219	0xbfd110c9f05e5941	-0.2666497084950557
220	0xbff378f7336dd6ad	-1.2170326241443192
221	0xbff4fec7bf9a6034	-1.3122022137158753
222	0xbfc87171abdcc17d	-0.19096203700747685
223	0x3fe07720146cc610	0.5145416640208982
224	0xbfdc087b16a5a37d	-0.43801762782691595
225	0x3ff5b979c5c6f625	1.3577821469947449
226	0xbfd6ec1d6068466d	-0.3581613008001117
227	0x3fd2d1cf8af21e90	0.2940558297054645
228	0x4007182cfd4ae6db	2.8868045605166635
229	0x400062379bc1e808	2.0479576271582154
230	0x4001e0fb62cb94e8	2.2348544805887407
231	0xbfb983785e6da079	-0.09966232591034609
232	0x3fe7e8724cf6ffa0	0.7471248152942174
233	0x3fe14ab677e17c05	0.540370210783181
234	0xbff5bbedcf010225	-1.3583810888377539
235	0xbfa290cdde064876	-0.036261018135648124
236	0x3fe92cc706e8d8f6	0.7867159972145419
237	0xbff6386b79df5727	-1.3887743721620127
238	0xbfb2f5c12b70d5dc	-0.07406241713109502
239	0x3fb7ecd6361dbc5a	0.0934575922126312
240	0xbfe574ec8aaf9ba9	-0.6705229481420832
241	0x3fee7e247327bf00	0.9528982400060784
242	0x3fcd8e7c4eed28fd	0.23091081479862643
243	0x3ff10e3a803d60ea	1.0659737595906855
244	0x3ff2f13a1ebe840c	1.1838933182664304
245	0x3ff0d1f89bc7a0fc	1.051262482180447
246	0x3fccefdb9034e2c7	0.2260698751577108
247	0xc00965cfebef3cdc	-3.174712985266167
248	0xc0092b0823d77a03	-3.146011619580578
249	0xc0012d4a564c5bb2	-2.147114443021075
250	0xbfbd7ac6b8eef392	-0.11515466704345403
251	0x3fa641d811c36d7e	0.043471100014097694
252	0x3ff09090f8f1d666	1.0352945064927552
253	0x40022569c5d733e0	2.268268151884044
254	0xbfe7525751f661d2	-0.7288014031246866
255	0xbff5584e1018469a	-1.3340588215545837

layer_1_biases f8 [15]
0	0xbfe100bff8a48bfb	-0.5313415390304493
1	0xbffe0b68d596ffaf	-1.877785524688061
2	0xbff054921765deb5	-1.020647136114275
3	0x400a332d2b40048b	3.274988496676604
4	0xbfd420ac0ac44fa6	-0.31449414302300693
5	0xc0147fde46be548e	-5.124871354452933
6	0x3fff7696cd5cfc21	1.9664524099350802
7	0x4018ae5d963137b4	6.170278879884723
8	0xc0046c7e3e90da42	-2.552975167079496
9	0xbfff082f904e2e03	-1.939498485272339
10	0xc0066a64887d2972	-2.801949564284933
11	0xc00028d6775baeab	-2.019940311894819
12	0x3fc5591e7fbe8e0c	0.1667822002174123
13	0x400f53f2245b681b	3.915989193000326
14	0x3fe5fbdaf645b829	0.6869940576559702

layer_2_weights f8 [10, 15]
0	0xc012c6bcbc4d30c5	-4.694079343997321
1	0xc01d93d289dae55b	-7.394357828126284
2	0x4010552e1239b6e6	4.083183560154543
3	0xc010f16453b01c47	-4.235734279273919
4	0xc00f1aafc6867f4f	-3.888030577640087
5	0xc01415f560e6a854	-5.021443857267588
6	0x400dc1d1474679fa	3.7196374481566155
7	0xbff33394744051c1	-1.2000927487434725
8	0xc001c9181b5b2ade	-2.2231905114361856
9	0xbff8494f9928e36b	-1.5178981764604156
10	0x400037f2883a822f	2.027318062100924
11	0x4011d91636ac2325	4.461998800522257
12	0xc00440426549ce33	-2.5313766396664277
13	0xbfeb5b6b8a808eb1	-0.8549096779938364
14	0x4012d60ee34adb1d	4.709041167682497
15	0x3fd2bb6e1439ec0a	0.2926898190996218
16	0x3ffacb59d230fd40	1.6746462069130104
17	0xbff9dc8437602a68	-1.6163370288001264
18	0xc0162cc12aa14b50	-5.543705621809593
19	0x3fe44976ebb31d3b	0.6339678386220052
20	0x400fa831a98bacf3	3.957125973296223
21	0xc00e051c2d128465	-3.752495147826766
22	0x4009fd6310bf1dcd	3.2487241085361576
23	0xc01c0f62a58dcf34	-7.015024744778021
24	0xc00009ad1d1c74c6	-2.0047247194584967
25	0x40083f9ff3c16a4e	3.031066803302827
26	0x40043438af9b3107	2.5254987448917094
27	0x4011e40157b46945	4.472661371599604
28	0xbffb04c00cc8f8d1	-1.6886597155967602
29	0x3ffc9af7f3b4733c	1.78783412167759
30	0xc010beb2f6226386	-4.186229558800624
31	0xc0196cc38c129a42	-6.356214703212176
32	0xc01849b8583d16a7	-6.071992281654878
33	0x3fea2b1bc1efc4d9	0.8177622592758339
34	0xc00eef2f0caa5068	-3.8667889584995017
35	0x40046ec6b536d722	2.5540899426804495
36	0xbfebd05b33e98d5c	-0.8691841138756149
37	0xbffd7da72fc72099	-1.843177019722168
38	0x400c9cf3939a7b09	3.5766364604490986
39	0x4026db8f01851210	11.428825423711743
40	0xc00b89dd9f83888c	-3.442317243768292
41	0x400f69797829781c	3.926501215711154
42	0xc0106f750a995c46	-4.108844915018443
43	0xbfd87ed3c2f4fa40	-0.382740917575493
44	0x4013ff260405a2c9	4.99916845592879
45	0x4010c1763f61134b	4.188927641201029
46	0x401466e05fd5c9b4	5.100465295241907
47	0x3fadb629ae519b06	0.058030416993281306
48	0x3fe3d4a1ba2b3d71	0.6197060237990809
49	0xc00e9be66a24711c	-3.826123074757687
50	0xc0093ae79e84d58b	-3.1537620910918966
51	0xc01142787a824e8a	-4.314912714198394
52	0xc010a405f510dd6e	-4.1601789752524905
53	0xbff67b0e4a67d047	-1.4050429254975982
54	0xbfaaee235cc730e9	-0.05259809978051228
55	0x3ff282215aed4ca5	1.156770091231729
56	0x400d0e7b81f4b76a	3.6320715096289193
57	0xbfe52bc20af5ba0b	-0.6615915502605402
58	0xbf97c937ea22d5f0	-0.02322852484276966
59	0x401f277c6fa30705	7.788560623479275
60	0xbfddb9f99c2feaa2	-0.46447601559308727
61	0xbfb74f073b1b8503	-0.09104962533048781
62	0x40138eae71736287	4.889337322871717
63	0xc008f555b8667984	-3.1197924047730243
64	0xbfd92e00cf139f16	-0.3934328100426553
65	0xc00ac7eb296adafc	-3.347616504262417
66	0xc014fd9d5c7934ec	-5.247670597932693
67	0x4000b4aeb14cfac0	2.088223824655273
68	0x4011d15db4d68cfe	4.454459024043215
69	0xc01b48e1b5b8b1db	-6.821173514745591
70	0xc0136462cc8eff01	-4.848033138492384
71	0xc0116655ad5e9464	-4.349936207673725
72	0xc01825592a8e5377	-6.036472954689876
73	0x4017bf7b0f6f3161	5.936992875253368
74	0x4011a48ae3fa6aa4	4.41068607536241
75	0xc0051d0e48bf19e0	-2.6391874011344356
76	0x4013b35e99165f44	4.925165550222861
77	0xbff80000f33a1b60	-1.5000009060911097
78	0x4008bda75ab06df7	3.092604359158709
79	0x400769820cc17a2c	2.9265175816101614
80	0xc00e4cefef986eb5	-3.787567016448373
81	0x4010693e58fbc419	4.102776899687364
82	0x3fceb1890614c290	0.23979294583252342
83	0xc013ae660e468bb3	-4.920311186843651
84	0xbff405ad6513da62	-1.2513860653249584
85	0xbfd547d6357df359	-0.3325095674879797
86	0x402144598d6b6685	8.633495730743798
87	0x401cd1e76fc0fb99	7.2049844228303295
88	0x4001d6258d37923c	2.229563811548614
89	0xc01f3947ecd868b0	-7.805938435276559
90	0xbff4785edd4c964e	-1.2793873447893875
91	0xc01fb40edc1c9a45	-7.925837935682073
92	0x40103f1ef9057936	4.0616415891257045
93	0xbff4794ea946eaea	-1.2796160328277275
94	0x3fdda9acc4fcdffa	0.46348113286103365
95	0x40036b33aac2233a	2.427344640779123
96	0xc008b0d2041f06c6	-3.086338073918202
97	0x400980a06b9adc83	3.187805977500433
98	0x401c3045541c1dfe	7.047139467445502
99	0xc011dc91a61fd6e8	-4.465399356549575
100	0x400e8eb4fbd56bcc	3.819681136561007
101	0x3fe2ffccd363a83a	0.593725598211001
102	0xbfe08197a8637799	-0.5158193863714927
103	0xc00c14b4b4d71888	-3.510110295118526
104	0xc011ed6da411a37a	-4.481863559319089
105	0x40097c9fdd32b92d	3.1858517914871727
106	0xc00b2b06fbbfa1ad	-3.3960094135147387
107	0xc015ad5cc493e9f7	-5.419299193885755
108	0x401b4e7b8bf1f58c	6.826643168108955
109	0xbfeea63998619bb4	-0.9577911354252735
110	0x4008e64bee51e50f	3.112449514269094
111	0x401b42966ff00781	6.815026997590281
112	0x4002b48b9844f5ff	2.3381568809552387
113	0xc0149e1484699de0	-5.154375142046291
114	0xc01509b17d23bfef	-5.259466128642074
115	0x4003e32fe5877b7c	2.4859311992617545
116	0xc02709223a2dc02b	-11.517839258274838
117	0xbffce8103fa7abac	-1.8066561209222796
118	0x3fee6787cdd8c04b	0.9501379986231852
119	0xbfdddf144948cb0b	-0.46674067646669987
120	0xbfe3a30a8d1285d1	-0.6136524920768186
121	0xc01a9c75f6a83048	-6.652793745055597
122	0x401232fe3d461b80	4.549797971157091
123	0x401320da36c2fd62	4.7820824200165095
124	0x4015def1f1404543	5.467719811961902
125	0x4000eccb77eacdde	2.1156224602252527
126	0xc00b95620a28d051	-3.4479409021096576
127	0xc005b795f0e94018	-2.7146414586241114
128	0xc005f447707b2836	-2.744276884802299
129	0xc01641f41bc7cf41	-5.564407762594613
130	0xc00fae8cf8233f5f	-3.9602298150784203
131	0x401526d1a7804396	5.287909142688383
132	0xc012ace35c3f3db3	-4.668836060867238
133	0x3f9592946dc123ed	0.021066970061188007
134	0x40141baab9e235d7	5.02701845591715
135	0xbf9e697a96761243	-0.029699244912551725
136	0x3ff984f02b7a29ef	1.5949556063011376
137	0x4017f7febdd66284	5.992182699403774
138	0xbfd5ae0d93f98276	-0.3387483544411575
139	0x3fef0a75caff3d50	0.9700268711839417
140	0xc015ecadee6bcced	-5.481132245378132
141	0xc01b89953b0d8d9a	-6.884358332349985
142	0x40018d640f1edec8	2.1940385037704324
143	0xc0172e73d0c9abee	-5.795363676365907
144	0x3ff00b8f1b52fc22	1.0028220240926733
145	0xbffb50224c26cd54	-1.7070639586134648
146	0xc016e6ac15187163	-5.725265817276838
147	0xbff21114d9a5ab18	-1.1291702749101145
148	0xc01cd6b10454aabe	-7.209659640948926
149	0x3fee9ea4cfc340dc	0.9568656976571464

layer_2_biases f8 [10]
0	0xc0227f61589e732d	-9.248789567319898
1	0xc02154732fea9c21	-8.66494130839243
2	0xc01a0836a8ef7440	-6.5080210109854875
3	0xc02e630377978d04	-15.193385827302798
4	0xc025428043935977	-10.629884826409336
5	0xc0251658e3c7c8e9	-10.543646925103944
6	0xc0267cfc382fe85c	-11.244111781929114
7	0xc0206e84e9f22ae1	-8.215857802211248
8	0xc03493ac031ecd4a	-20.576843447704313
9	0xc01825fa0765a189	-6.037086597040237
