models/model95,6.npz (npz, 192468 bytes, 4 tensors)

layer_1_weights f8 [30, 784]
-2.0613007475893688 0.9644297355211022 0.6987045491732509 -0.2708626357687557 -0.9327244002410682 1.833374089031547 0.1247306674831433 0.49120765303579017
-0.7209315531204137 -0.8645865314494382 0.42126748282390114 -0.42616148984398944 -0.3270654190802363 -0.9756821979242183 -0.7543716540010266 0.954910360518319
-0.9708680854668016 0.6608968273478312 0.3743892738432824 1.2472718904909748 1.109670540616759 -0.49994985143680676 -1.2490606952387504 0.6924404524987262
0.6363379374115423 1.2072394794749732 -0.2914707077780056 -0.509734395512956 0.5912359061609794 -3.295098766713501 -0.44143783574967377 -0.1043772811592563
0.35918680653172663 0.2724259970782626 0.15536429672913044 0.6067956432632174 -0.2694024098003601 0.5397335112286594 0.3739449666599009 1.2820139379053994
0.6081041136792311 0.4069024122826504 0.40582669371693114 0.1505364671599044 1.3765651054460448 -0.4347139612487988 1.7988472222847502 -2.2892225001980644
1.7653710094454769 -0.09471798263662871 0.9824784558264845 0.18665746839639033 1.1049622063472144 -1.0426001017936237 -0.9690352277460009 0.149971781798438
-0.6330815425305356 -0.6879551483370063 -0.5754441544404935 -0.8405484050449629 2.5373101593738934 0.9117690646004974 -0.1442555433896243 0.5824235894540263
-3.0175913441120144 -0.9922836785054507 0.009499782696488521 0.9695888322269542 0.3483200109541062 -0.9507741817731515 1.6266636365070695 0.20044593068396557
1.0045072384268159 0.5975360546745566 -0.13782188789976335 0.9981370438421114 -0.9922511848170408 -1.0138367439398188 -0.34458953713467994 1.155891946808561
0.575268105471101 -0.48208234278833206 -1.0819609095340026 -0.11610955342007906 -0.6349985862861659 -0.02754458107514894 -0.5995797624077497 -0.19386196673586864
-0.31675102980622377 1.2690576864158647 0.05413506534021279 0.10180613828285448 1.157486874328148 0.4740510471627243 -0.36179257945798643 0.6564554884146351
0.2709559882087917 1.57450670770939 -0.4502079145759448 0.8863785168414164 -0.1342818084793299 -0.19308401202392145 -0.5286564783345645 -0.5428851032036537
-1.495740206265158 -2.7737154959584553 -0.0453766960550372 -2.541533210853525 1.7830440037174682 -0.7369210293071338 0.3084228133029288 1.947216850966264
-1.2098737272180797 -0.5559637665048902 -0.591532081512496 -2.2461069872184183 0.08509997207150215 0.22075793371898128 0.0852708519874764 0.12455174222250773
2.493892603776499 0.3461270551101372 1.6774229427542726 0.24655502495857592 1.2700674078966876 2.8528327749070033 -0.026706846681906884 0.3588825859507912
0.7277575893162683 0.7269607282932029 -1.6758894006026894 -0.9251156991568085 -0.6081235135764219 -0.8545989655593798 0.2645185947910986 -1.4923827261808076
0.07454500410404896 -0.3196750776836665 -1.2901928406195464 -0.5556618943411399 1.0227116617530816 1.7067122835422022 -1.09331373503057 1.062642023897051
-1.268942720416011 1.7928193760670363 1.7113575537602832 0.7628749798956129 1.3784048872253 0.33602250107133846 1.4913912731901637 -0.27268550406871406
-0.06934334139478662 0.35060122923280007 0.14338013458213558 0.1252892433171231 -0.38532983844546165 -0.26684714209226257 0.597634743001839 -1.1219022285922806
-1.542311206282732 -1.1672182405920093 -1.7690386701916023 -0.5492045395960897 -1.2230631462067036 -0.9094576161499243 0.18946609989783858 -0.9774491640535405
-0.7742781335958547 -0.6210006970509586 1.1252480247396794 1.3458467740678988 -0.6257618883863677 -0.3703470223620638 2.1035084432625863 -0.012280622551046415
-1.7498452993240796 1.4186832840346828 2.5041531642726773 0.16263367604381224 2.3381340914616526 1.1911185969455995 0.07284316364361308 1.7918605075130107
0.9156027386350026 -0.8224806518828526 1.0617631975598243 0.6265927875653962 1.2943087216378875 0.21504209620408316 -1.1462849122158187 -3.223696236066501
-0.3609701956951787 -1.3417749787571491 -1.4780123757652628 0.9113481155361165 0.8685252599700931 0.21930144934327345 -1.8137399840637936 0.48605021534746246
1.1370444441062395 -0.6057749656842604 -0.10578444850086927 2.1892321816344293 0.9385111419060971 -0.47865195879528055 1.8429568638112561 0.47691852890038944
1.3557270904654444 2.2204584622378385 0.46517780253760443 -1.5392834723196793 -1.0015609279040314 0.1391722304388347 0.627332591537898 -0.4327882405938705
-0.1999404975617124 -0.7298614122462211 -0.6842655273646523 0.1879837705411449 -2.9110432908655755 -0.24545896539694323 -0.040561334363969005 -0.8657548519136207
1.020837031553231 1.8963364397763594 -0.21372915996766956 0.6442441206934839 1.107703740616013 -0.8939820681648992 0.13988204287721695 -0.5268387723679395
-0.33267440785708274 -1.108501779604945 -1.713433085127464 -0.47203155271873265 -1.1866559671043457 0.7803086037267436 -0.33028616092860347 1.8037240305159492
0.963330770676306 1.8643055071984498 -0.995509143271851 0.7194454192879708 0.5613576597754858 0.6280942321610877 -1.802336632947964 -3.6495798308272165
-2.0389659890191405 0.024351441436792073 -0.7037524453803347 -0.21428106392997479 0.9106496609988508 -0.48087200348057557 0.9755598107320455 0.5555162783696416
00000000: fbee 103f 8b7d 00c0 4c4c abbf 9bdc ee3f
00000010: 467f 88a4 c95b e63f 5a73 953c d055 d1bf
00000020: 68ee 66d7 e0d8 edbf ae96 9b11 8055 fd3f
00000030: 57fa a559 59ee bf3f 425a 5539 f26f df3f
00000040: 30d0 690c df11 e7bf af65 a45f b1aa ebbf
00000050: 9033 66e3 0bf6 da3f d973 6cd7 3a46 dbbf
00000060: 9d89 a6cb a3ee d4bf 20f7 6bdf c938 efbf
00000070: c0d7 de05 d023 e8bf 3f35 212c a08e ee3f
00000080: e5eb 79f2 5911 efbf a7a6 6f1a 1126 e53f
00000090: 5553 c86d fef5 d73f b00f ae5e d3f4 f33f
000000a0: b589 94e5 35c1 f13f c7e9 63a9 2dff dfbf
000000b0: b14f 4c11 27fc f3bf 621a 3de1 7828 e63f
000000c0: 985f cc60 e15c e43f a98f 2c58 da50 f33f
000000d0: 2381 69c1 74a7 d2bf b3fb cb81 be4f e0bf
000000e0: a9d5 2590 67eb e23f d0fe 00be 5c5c 0ac0
000000f0: 74c2 f07a 8440 dcbf 433f 0631 78b8 babf
00000100: 2a57 cda8 eafc d63f 4d01 0273 6d6f d13f
00000110: b875 b52e fae2 c33f 3577 65b2 de6a e33f
00000120: be97 e39a e33d d1bf f008 6936 7f45 e13f
00000130: a9b7 93de b6ee d73f 2b1e 050c 2183 f43f
00000140: 7617 1ac2 9675 e33f 31b8 5a6a b00a da3f
00000150: eee9 5686 10f9 d93f 4351 a769 c744 c33f
00000160: f349 cb21 6906 f63f aa67 ab81 5ad2 dbbf
00000170: 456a 6306 14c8 fc3f bff1 dce2 5350 02c0
00000180: 4eff edab f53e fc3f 6375 c40d 703f b8bf
00000190: 2094 99a8 7670 ef3f fd87 2855 64e4 c73f
000001a0: 943c b9d9 ecad f13f 7d28 c071 7dae f0bf
000001b0: 5be9 7a2a 5602 efbf 76d5 127d 4632 c33f
000001c0: 16d6 1b39 3442 e4bf d81c e783 ba03 e6bf
000001d0: a1e1 ffdb 096a e2bf 3ff0 cbc4 c5e5 eabf
000001e0: 2c8e d244 694c 0440 34d6 3e51 362d ed3f
000001f0: c304 9034 f776 c2bf 97f7 a3cb 36a3 e23f
00000200: f33a 3dee 0624 08c0 ba22 71b3 c9c0 efbf
00000210: 3213 0140 9f74 833f 4369 9f28 df06 ef3f
00000220: 9fc6 e503 e04a d63f 5b19 13fa bd6c eebf
00000230: a63e 0673 d006 fa3f 7db3 7356 36a8 c93f
00000240: 1637 9a2e 7612 f03f 4342 a0ee 031f e33f
00000250: 44ea 99ca 25a4 c1bf ab4b 0719 bdf0 ef3f
00000260: 2c9b 868e 85c0 efbf 3d46 abe0 ac38 f0bf
00000270: f161 2246 c10d d6bf 690a d48d 887e f23f
00000280: abc4 6da8 9868 e23f 1051 10e6 6fda debf
00000290: b9fb 1f3e b64f f1bf 6c41 b10e 5bb9 bdbf
000002a0: c15e 238e e851 e4bf 4c61 998b a534 9cbf
000002b0: c04f dce5 c12f e3bf 4cce 880b 78d0 c8bf
000002c0: c97d 7f1c a645 d4bf 084c be6e 0f4e f43f
000002d0: 79f4 675e 97b7 ab3f 4af8 7492 f70f ba3f
000002e0: 579e ecf4 1085 f23f 7ab3 0c34 da56 de3f
000002f0: 3948 2d10 9c27 d7bf 77a8 c0f0 ae01 e53f
00000300: 9bc6 00c9 5757 d13f 831c 0ff2 2d31 f93f
00000310: 4442 60db 34d0 dcbf 70bf b67a 365d ec3f
00000320: 14e8 ee73 2530 c1bf a8f8 8216 fab6 c8bf
00000330: df7e a8fd c0ea e0bf 50d9 7794 505f e1bf
00000340: d289 5348 8dee f7bf 5f66 fcbf 9130 06c0
00000350: 3924 1d43 9d3b a7bf 9682 325d 0f55 04c0
00000360: 13ba 3426 5987 fc3f 447b 1369 db94 e7bf
00000370: 397d 1e0a 33bd d33f 61ec 51db cc27 ff3f
00000380: 790f ab8d a45b f3bf 92c8 5c86 74ca e1bf
00000390: f630 14b0 d4ed e2bf 905c abf0 06f8 01c0
000003a0: 8b07 f09c 1cc9 b53f 66e9 d3c4 cb41 cc3f
000003b0: b798 9680 4fd4 b53f fe67 817b 9fe2 bf3f
000003c0: 9aa6 27f7 7df3 0340 745d 7d17 f226 d63f
000003d0: ef08 8b70 b9d6 fa3f 2f47 6e74 1d8f cf3f
000003e0: b61b ca33 3252 f43f c775 69fd 99d2 0640
000003f0: 34f3 4f24 0a59 9bbf bdcd 70aa eef7 d63f
00000400: f9ee b048 ca49 e73f 5adc 2f25 4343 e73f
00000410: 54d3 7467 71d0 fabf 1da1 1c3d 8c9a edbf
00000420: b5a8 5771 bf75 e3bf 24bc 08ee df58 ebbf
00000430: fcf1 7366 dfed d03f 82fd a0b5 cce0 f7bf
00000440: f002 b5a2 6115 b33f cbd8 ff74 8e75 d4bf
00000450: 9fe8 7f3f a1a4 f4bf eb83 fa73 fbc7 e1bf
00000460: 0f7a 47e7 065d f03f 7eec 178a b14e fb3f
00000470: 2095 038b 367e f1bf ade3 3fec 9400 f13f
00000480: d3f1 cae1 964d f4bf 1e7d bd5e 63af fc3f
00000490: 8f9b 5275 b861 fb3f 7ad3 32ca 7869 e83f
000004a0: bc77 7448 f20d f63f d893 3485 6481 d53f
000004b0: cf43 7e18 bddc f73f b260 84e6 ad73 d1bf
000004c0: a268 7c37 7cc0 b1bf 7181 5f23 4070 d63f
000004d0: ab92 76be 475a c23f 7837 4b59 7a09 c03f
000004e0: 4af5 927b 3ea9 d8bf 2e4f 1409 0614 d1bf
000004f0: 31ae 84e5 d21f e33f 54d0 51c0 4ff3 f1bf
00000500: 7cd1 f383 4ead f8bf 8b32 aa08 edac f2bf
00000510: f250 1d7e fb4d fcbf 7d28 0c66 1593 e1bf
00000520: 1969 5ea9 aa91 f3bf 15c9 cedb 461a edbf
00000530: 7885 61d7 6c40 c83f 9099 2378 4347 efbf
00000540: edaa b9ef e2c6 e8bf f710 94da 3cdf e3bf
00000550: 0f54 a212 0401 f23f 95c7 80a0 9688 f53f
00000560: 1f7c b6cb 3d06 e4bf add3 4dff c3b3 d7bf
00000570: a661 153c fcd3 0040 2ca1 d941 9526 89bf
00000580: 0380 dac8 5dff fbbf 35f9 443e edb2 f63f
00000590: fbce 4574 8108 0440 3610 eb27 2ed1 c43f
000005a0: 7cec 83a5 7fb4 0240 be9e b85f d20e f33f
000005b0: 7f24 967d d9a5 b23f 8f32 6cec 75ab fc3f
000005c0: 8717 521d 9e4c ed3f 63bf adf1 c251 eabf
000005d0: 73da 1968 fbfc f03f 5d17 5051 0c0d e43f
000005e0: f5cb e50f 7db5 f43f 7adb 3ad9 7f86 cb3f
000005f0: bfd7 1dd9 2e57 f2bf be26 9140 21ca 09c0
00000600: 57db 55bc 221a d7bf 18a6 450a e977 f5bf
00000610: cbeb 0f4e f0a5 f7bf 94f6 ef85 c329 ed3f
00000620: 4d49 6a7c f5ca eb3f 8087 72e4 1112 cc3f
00000630: 5e06 b037 1405 fdbf 1564 c85c 721b df3f
00000640: 898e d883 5531 f23f 742e 4b2e 8262 e3bf
00000650: c493 bc8a b014 bbbf cdc3 7b29 8c83 0140
00000660: bb62 ad84 4808 ee3f de4a 4cd3 3ba2 debf
00000670: 0f21 2056 c07c fd3f 5cf3 1e4b d585 de3f
00000680: e69a bde3 0eb1 f53f f580 ebb9 7fc3 0140
00000690: 9658 2e1e 79c5 dd3f 772e ceb4 e7a0 f8bf
000006a0: a4c9 64c0 6406 f0bf 8682 1f49 65d0 c13f
000006b0: aad8 8bcc 1b13 e43f 5f6b dc72 cdb2 dbbf
000006c0: fc35 1675 a697 c9bf 73b7 0652 065b e7bf
000006d0: c8f6 b9d1 80e5 e5bf 0895 5329 da0f c83f
000006e0: 1a10 9c10 d149 07c0 28e7 710a 336b cfbf
000006f0: 9d96 2689 74c4 a4bf 7a50 ea84 43b4 ebbf
00000700: ce11 1136 5955 f03f 31d7 f0e0 6457 fe3f
00000710: ee9f 2124 7a5b cbbf ee99 a0d8 a59d e43f
00000720: 6da4 b98e 27b9 f13f 6351 3f48 809b ecbf
00000730: d047 ba9f a7e7 c13f 0cb9 32fc dcdb e0bf
00000740: e996 7d99 894a d5bf 6a60 af5c 6cbc f1bf
00000750: 061c 88cf 386a fbbf 04da 66d4 c335 debf
00000760: 0b10 a5f7 8afc f2bf b566 b9bf 49f8 e83f
00000770: a99f e090 6823 d5bf 7634 a1ba 0ddc fc3f
00000780: 7120 690d 9bd3 ee3f 76b8 f202 32d4 fd3f
00000790: 2c17 a7fd 35db efbf b729 6366 b205 e73f
000007a0: a708 c356 a4f6 e13f f104 3e13 5919 e43f
000007b0: e54e eeef 5ed6 fcbf 555a 0ce9 5632 0dc0
000007c0: b2f2 8366 cd4f 00c0 cf6f 5392 95ef 983f
000007d0: 1d6f 2cd9 2385 e6bf 1f9c ddd8 8f6d cbbf
000007e0: 4a50 03c2 0a24 ed3f 60b5 205e 9bc6 debf
000007f0: cf5a 4c35 c937 ef3f a5c8 ff12 cac6 e13f

layer_1_biases f8 [30]
-5.051754654159539 -1.4603353763783733 -0.11659925029955538 -3.143435072030948 -1.0999552890282287 0.07899704482626033 -1.7198660558648995 1.8935113069091292
0.03705894115657712 -2.37375557542513 2.279309248740881 -0.8986505061914059 -2.7202070330914654 0.37402818569936885 2.829869679871272 0.06779518590949271
1.3233328822108503 -0.6377949145426254 -0.008921417069045385 -2.2540809148217797 3.2286807961083293 -0.7618480306926613 -3.004721033297276 1.2084009414233656
3.765426640160677 1.2235461491611541 -3.056329753589456 2.185533366233103 -6.163075895232547 0.09943812476841758
00000000: c11f 0c2c ff34 14c0 9bca aba0 885d f7bf
00000010: 4d53 c6ce 72d9 bdbf 53c7 7b49 c125 09c0
00000020: f903 97b7 6a99 f1bf 466a 027c 2639 b43f
00000030: 460b f744 9284 fbbf af7e 1c83 d24b fe3f
00000040: 3b72 95b8 63f9 a23f 5230 2990 73fd 02c0
00000050: d27f c67c 063c 0240 a607 d4b4 bec1 ecbf
00000060: f7d0 abe7 fbc2 05c0 b11a 57ea 13f0 d73f
00000070: afe9 f7b6 92a3 0640 0eb9 4e7a 065b b13f
00000080: 8612 ad19 5f2c f53f 8a80 70e1 d068 e4bf
00000090: ca3c 5d54 6445 82bf 1594 1d93 5b08 02c0
000000a0: 7211 e498 56d4 0940 7f1a 0b1f 0f61 e8bf
000000b0: c8eb 5c2e ab09 08c0 4ae7 bd39 9c55 f33f
000000c0: 72d1 9700 981f 0e40 cbb3 7c20 a593 f33f
000000d0: e9aa 8b03 5d73 08c0 c24d e2ea f87b 0140
000000e0: aa28 135e fda6 18c0 a51d dbe5 c674 b93f

layer_2_weights f8 [10, 30]
-3.360144659479322 -2.2173420821403975 -2.9410798899368062 -0.02343157850899944 -2.727305304504557 5.1975433374912905 -2.720376921497921 5.23926116692783
-2.7048599698989966 -3.429676247534687 -2.5092809640331573 -3.7759912881766815 -2.855275851137909 2.1855026358781937 -1.0002803135017593 -1.9151780673747005
-3.6170602386904127 -0.07596365772333004 3.590523598620843 1.544279036627631 -2.9744736389737207 -5.688235269066638 -0.30044772127232 1.9364466672424019
-1.9010672074364356 -0.6867522712514329 1.0371196091342147 -3.4890345572756387 3.199968086285862 1.246015024119415 2.616705567346535 7.624858733822004
1.2343380362974992 0.8559558598816247 1.7589567499257721 -1.2353148624254906 -3.455996212910809 -3.7376821101367455 -2.260010061115827 5.050884188150656
-1.1701338876380403 2.1535766753540964 0.6575327248828435 -3.77334608641325 3.140003675672069 -3.2111273953205943 -0.3671348859110399 0.09738780458425496
5.856887338098753 -0.862448187224246 1.118964597293986 -3.756657147275489 1.5376962352538175 -0.961625991121381 -1.2404072020211903 -1.3442826114776916
-1.6059665996513846 -2.762052883871189 -0.1174174858732946 -3.493362456382664 2.524394790974747 -5.72372399582444 -8.168772842356029 3.9513646807831995
4.325205632125151 -2.4406076102324485 -1.4979466669176555 4.539616138056583 -2.017302310170007 -1.8733586659472974 -0.5251213807653248 2.7202998351333836
0.8972095362657482 0.1051038730292841 2.571819181708014 3.2667743054052427 0.7650545914978018 0.6700617332558203 2.4476476416094144 0.016961546819178466
0.4178304364710149 -2.845724953422503 -5.2311265361337895 -4.567256924839204 -2.612075708006297 -2.4927062526602395 0.955522227820749 -0.5241712019184271
2.6530280515455313 0.04054459516522988 1.709664220137726 -3.6270135914806882 0.004564524369206896 0.5163820733926364 -3.455517582327052 -1.347412957295756
-0.5642418068824747 -2.5806896168433684 -4.582427510237586 -0.6978029371500519 3.3643403475366793 -3.5050727084967903 2.3997564789764407 2.481083402169653
4.719799041995366 -1.4044432282536787 0.03657265513198111 6.178529040564993 -1.9476830078427578 2.2878946712887784 -1.4070094339053456 3.907423954415864
-1.950159743108944 -1.227898130896616 -6.536755834580665 0.7734414225490966 1.5316500225564902 -3.6650858632194683 -1.7283235822759662 1.7155682668640255
-1.663578511176131 -0.9920345471646121 5.65034510823991 -3.769080411981072 -1.3351969932541707 -1.0407597490015863 -3.084535531192852 -0.034850220912651345
-2.9574462210419608 -0.05143912102637474 -2.6494963423764832 -5.239612659444299 3.079197469646585 -2.9810419152325855 4.3002217255533415 1.505426293296779
3.854669110327638 1.6067969991440398 -1.7662600049164383 -4.4026544522084565 -1.1518610824974478 0.04057528309886454 -2.829477749103704 -0.8734100275265246
-0.32381998912990445 -3.9349259649263555 -3.161964897903256 -3.913720361961351 0.33051687753460424 2.653039370475696 -4.4883387972901065 3.9294463433811564
-3.23305609276877 -1.4362418279383249 0.4247259156494841 1.2963778702174993 3.6139281889693415 -2.0288415063871135 -3.6162907382025486 -0.5230210510290321
6.149836402326824 0.5012641909888463 -1.2764697162482543 0.43481931549344094 -5.408997559887179 1.0418341973725418 -0.5176451523131225 -4.215866256364147
0.7293938924467658 3.0158746986865044 2.1378538923414565 3.683614511392646 -1.5201909686754984 1.3454816718450393 5.975226047612278 -1.117132288531233
1.88090642733085 -2.3545606356767887 -1.7779360393555041 -0.6182145725896432 -4.636897411990165 -1.1359794475003335 4.32323932152528 -3.842997249620768
-0.6473662732234676 -1.5087295961197058 -1.7832349080462553 5.07623703662155 -5.608982380449557 3.5091985910849797 3.395083243732587 4.076343724228961
-1.8986886643577388 2.1274511856558505 -1.8847441313146143 -0.6700763584054087 2.7039916092182543 -2.2377135242473383 3.3417930682372603 -0.33186728995792364
-1.380974380193099 -6.721504943489252 0.9072917519099332 1.5564647626809534 -2.404043943806411 1.3401060318919138 -3.228139368218523 -6.216403355497465
0.11926729305383833 3.4900337936351797 1.3320752190777232 -2.7356160527977442 1.4359805375454782 -1.0865592889462634 2.952720860368224 -2.7676335747643153
2.5580787673142114 3.671380425938112 -0.20188047252892705 2.7329681324750985 -0.8648417205200464 -2.5319274269661913 0.6851145033891821 2.084511565048316
0.4359814035851862 -2.305743747874103 -4.614574544435455 -0.8350006019447019 -5.012118361586667 -3.012017189534857 -0.8141824108873142 -1.0356424942558597
2.459279422047045 -0.4310800260484796 0.2124559418866766 1.9858032625906195 -3.3230826492079633 -0.7275747263004855 -1.1033585455222954 -0.020339589785106856
-2.2591348128552804 -5.020850631162337 -0.7947135049665078 -1.1906277651207193 -1.333959447258206 4.568060503990204 -1.9779411166566592 4.164219961630334
-6.706072845139227 -3.8769478688994385 0.4289241164497527 -2.781681672277125 -2.739249993392177 -0.3987214173910194 2.439210974626612 0.22852219573226762
00000000: 8a57 f285 93e1 0ac0 4fb3 76d8 1dbd 01c0
00000010: 6a9d b1e4 5487 07c0 1a2a 8f9d 72fe 97bf
00000020: 666f 8871 85d1 05c0 6945 f8cc 48ca 1440
00000030: 8b03 b5f9 54c3 05c0 9da1 1ce1 00f5 1440
00000040: 4ece b79f 8da3 05c0 613c b819 fa6f 0bc0
00000050: 6bfb e7e5 0113 04c0 1b99 a5eb 3a35 0ec0
00000060: 2b91 8ddd 9ad7 06c0 5f59 53ce e87b 0140
00000070: b629 15ee 2501 f0bf d040 d6c1 91a4 febf
00000080: beb2 4647 bdef 0cc0 9132 9bb1 5a72 b3bf
00000090: f4bd bc6f 64b9 0c40 cc6c 63ef 5db5 f83f
000000a0: 62a6 d1d5 b8cb 07c0 4061 12bf c0c0 16c0
000000b0: fc6d 4114 893a d3bf a811 2480 affb fe3f
000000c0: 2900 b772 c56a febf e650 2fe6 dff9 e5bf
000000d0: 1c59 34bb 0a98 f03f d3e6 30f3 8ae9 0bc0
000000e0: 5cbb 36de 8899 0940 3dae 2e73 adef f33f
000000f0: af1d 1854 03ef 0440 ba8a c9f7 da7f 1e40
00000100: b7b4 a13d d9bf f33f 3b5b 208b fd63 eb3f
00000110: 7e27 40d5 af24 fc3f 6315 6684 d9c3 f3bf
00000120: 0a6a ac57 e1a5 0bc0 800d cfe0 c5e6 0dc0
00000130: cdfc a827 8014 02c0 5af6 0ffc 1a34 1440
00000140: 2c8c b54f deb8 f2bf 1298 7068 863a 0140
00000150: 927d ad11 820a e53f 7413 ad12 d02f 0ec0
00000160: 8fa6 423f ba1e 0940 6e88 518f 63b0 09c0
00000170: d359 0d52 237f d7bf 15f7 b73b 68ee b83f
00000180: 6af6 d5df 736d 1740 84ec d3f0 2c99 ebbf
00000190: d426 ec6b 47e7 f13f bda9 2e43 a20d 0ec0
000001a0: 3b8f 195e 679a f83f 8732 dbde a3c5 eebf
000001b0: 4876 e638 b5d8 f3bf f10c ce7b 2e82 f5bf
000001c0: 4e89 7f08 0ab2 f9bf d964 b02e af18 06c0
000001d0: 61e9 cd85 120f bebf f3e6 f903 68f2 0bc0
000001e0: 326f 6be5 f531 0440 ed95 35e7 17e5 16c0
000001f0: 85be dc64 6956 20c0 3e44 f415 659c 0f40
00000200: 64cf 89b4 024d 1140 6289 6248 5d86 03c0
00000210: 3e04 99ec 96f7 f7bf 2b63 0522 9128 1240
00000220: 7a9a c264 6f23 00c0 d2bf beef 46f9 fdbf
00000230: 6a28 9a5a cbcd e0bf 54b2 598f 2cc3 0540
00000240: 7e76 fdc5 f0b5 ec3f 7dfd 5761 16e8 ba3f
00000250: 8d4a 65ef 1593 0440 7107 2991 5a22 0a40
00000260: 0668 44c4 537b e83f 7a50 d44d 2571 e53f
00000270: 70c0 6649 c894 0340 d703 8323 5e5e 913f
00000280: 8aa6 fade bbbd da3f dde2 c271 0bc4 06c0
00000290: c4ba 476f acec 14c0 a574 d2ff de44 12c0
000002a0: 3681 e4f2 87e5 04c0 fcae cdf9 0ff1 03c0
000002b0: efea e259 a393 ee3f 3bd4 37af 02c6 e0bf
000002c0: bc11 66c5 6639 0540 1d48 87dc 42c2 a43f
000002d0: 4420 8ade c85a fb3f dc74 acb3 1f04 0dc0
000002e0: ba5b 332e 40b2 723f 13c9 aeb2 3386 e03f
000002f0: 0ac8 f666 e6a4 0bc0 b1ab 9ce3 008f f5bf
00000300: e113 73d5 440e e2bf 97c0 0b99 40a5 04c0
00000310: 680b 93e0 6754 12c0 4797 43d3 6654 e6bf
00000320: 3944 aa45 2bea 0a40 50c4 688f 630a 0cc0
00000330: 1c8b 5c86 b332 0340 92bc 3741 42d9 0340
00000340: b93f 0400 13e1 1240 ec02 6776 9978 f6bf
00000350: 7982 70ab a6b9 a23f 9d73 1a51 d0b6 1840
00000360: 8b8d 5aa8 b529 ffbf 1706 afb8 9b4d 0240
00000370: 4797 fc52 1c83 f6bf c695 7e7d 6742 0f40
00000380: 0e0f eab3 da33 ffbf f053 b082 78a5 f3bf
00000390: 36d8 4d52 a325 1ac0 f40a e739 08c0 e83f
000003a0: bdc3 3c74 a381 f83f f379 7c89 1852 0dc0
000003b0: 527e eca0 36a7 fbbf 41c8 03b6 f772 fb3f
000003c0: 1447 3d80 049e fabf ac5f 123c bfbe efbf
000003d0: 1704 6c11 f499 1640 909f 8ba1 1327 0ec0
000003e0: 3ae8 bb85 f75c f5bf 9b47 cfb1 f3a6 f0bf
000003f0: 1896 eef6 20ad 08c0 820b 285e e3d7 a1bf
00000400: 9c6e 7890 d9a8 07c0 e426 167d 3a56 aabf
00000410: 6707 6b23 2b32 05c0 5a15 6005 5df5 14c0
00000420: db76 7048 32a2 0840 eb6e ef80 2cd9 07c0
00000430: 7f33 f352 6d33 1140 81f8 83e1 3916 f83f
00000440: a811 2ec2 5cd6 0e40 4927 2ac5 70b5 f93f
00000450: 1a95 d5d9 9942 fcbf e54b df72 519c 11c0
00000460: 82c9 ede2 056e f2bf 5702 df93 48c6 a43f
00000470: e447 e93a c5a2 06c0 3e32 0796 f9f2 ebbf
00000480: 2fa8 c679 77b9 d4bf cc51 dc76 ba7a 0fc0
00000490: 76c1 9c40 b44b 09c0 9c81 029f 4c4f 0fc0
000004a0: de60 f242 3027 d53f 608c 99b4 6c39 0540
000004b0: 7aea ee15 0ff4 11c0 bbab 8190 816f 0f40
000004c0: 709a 4483 4cdd 09c0 2047 02b6 d8fa f6bf
000004d0: a59a 5e9b b52e db3f 077a bdb8 f6bd f43f
000004e0: 05ba ad2e 53e9 0c40 a899 7541 113b 00c0
000004f0: db42 abd6 29ee 0cc0 7441 a9a4 96bc e0bf
00000500: ddf9 beb6 6e99 1840 eb7e 5e33 5b0a e03f
00000510: 31ee 5982 6b6c f4bf eba8 ed64 14d4 db3f
00000520: db6f 9f41 d0a2 15c0 931c d955 5aab f03f
00000530: 04c5 0391 8c90 e0bf 6b93 3d0b 0cdd 10c0
00000540: 84c0 3edc 3157 e73f 048a fde9 8220 0840
00000550: e6dc 3924 531a 0140 fc04 8ce2 0a78 0d40
00000560: 582c e2c3 b352 f8bf cf11 1fca 1787 f53f
00000570: ecce 32a8 a1e6 1740 aac1 481b c6df f1bf
00000580: 238e 8356 3118 fe3f 3c72 f5e2 23d6 02c0
00000590: 2896 760f 6d72 fcbf 3fdc 65ed 69c8 e3bf
000005a0: 839e cdd5 2e8c 12c0 c412 ffc8 f82c f2bf
000005b0: e2ed aa3f ff4a 1140 c6e9 8d57 75be 0ec0
000005c0: f7e6 8079 39b7 e4bf 7a76 1da5 c123 f8bf
000005d0: c84e b253 2188 fcbf 5122 ec14 114e 1440
000005e0: fc7b bf13 996f 16c0 bc08 ffb5 d612 0c40
000005f0: 833b 5867 2129 0b40 de45 9b0c 2d4e 1040
00000600: 113d 6b5d 0761 febf 90d3 9120 0505 0140
00000610: ea2f 5576 e927 febf 7391 a5f9 4371 e5bf
00000620: ab01 525a c6a1 0540 7cac 2359 d6e6 01c0
00000630: d4a0 1001 febb 0a40 c5cf 3e4d 503d d5bf
00000640: 12b1 7897 7818 f6bf 32c1 2031 d2e2 1ac0
00000650: 5747 4cb6 8808 ed3f 2175 5198 47e7 f83f
00000660: f95c 2664 7b3b 03c0 a15e c205 1371 f53f
00000670: e46d abbb 3ad3 09c0 d36c 5ad7 98dd 18c0
00000680: 2110 2623 4d88 be3f 85c8 6cd6 96eb 0b40
00000690: 8203 dc1a 2e50 f53f 6e6e 49ab 8ae2 05c0
000006a0: 8c34 67ba c6f9 f63f 0707 33fe 8b62 f1bf
000006b0: f0fc 4b1d 2c9f 0740 fa64 5712 1d24 06c0
000006c0: faa6 3100 f276 0440 43a1 64b3 fc5e 0d40
000006d0: fc3b 9b25 38d7 c9bf 0bed 6f65 1edd 0540
000006e0: f732 3b8b c8ac ebbf 5f52 b52a 6341 04c0
000006f0: 564c 4240 75ec e53f 5f21 4066 14ad 0040
00000700: da00 848b 1ee7 db3f 1f9b 30c7 2972 02c0
00000710: af37 8507 5375 12c0 17c5 af2e 53b8 eabf
00000720: 8ac8 7ac1 680c 14c0 1b56 e077 9c18 08c0
00000730: 91a9 7745 c80d eabf 1dd4 32dd fd91 f0bf
00000740: bc57 8bb0 9aac 0340 3292 75ad d096 dbbf
00000750: 6440 1f9d c131 cb3f 75de 51a4 d9c5 ff3f
00000760: a406 225b ac95 0ac0 626a dbca 4a48 e7bf
00000770: 767c 4c4a 5ba7 f1bf ffac c3c3 e6d3 94bf
00000780: 82bf d345 b512 02c0 d5c5 2bde 5915 14c0
00000790: 73a9 3004 4b6e e9bf ee72 0eb3 cf0c f3bf
000007a0: b1a0 82dc e557 f5bf 1926 1ba7 b145 1240
000007b0: e143 9795 a5a5 ffbf ec35 1247 29a8 1040
000007c0: dadd 89c2 04d3 1ac0 87c2 893e fd03 0fc0
000007d0: 3683 2723 7e73 db3f b380 1252 e240 06c0
000007e0: 3d80 89e6 fbe9 05c0 3c30 fad5 a684 d9bf
000007f0: 5186 200b 8183 0340 0044 8a1e 3740 cd3f

layer_2_biases f8 [10]
-2.1976014184053194 -1.0146325259785554 -2.44480893127705 -3.1771286057650694 -1.8426522317821499 -1.1290987134431674 -6.5360308075187445 -0.6045524867119244
-5.608893821018807 -4.4507680354530725
00000000: 6f8d 6d0d b094 01c0 7f92 c850 ef3b f0bf
00000010: db6d 26fc f78e 03c0 8f93 0767 c26a 09c0
00000020: ef7d 16e8 807b fdbf f31a 03d0 c910 f2bf
00000030: 13c4 8f42 e524 1ac0 0395 e474 7e58 e3bf
00000040: 8c0c a0dc 816f 16c0 9769 c922 96cd 11c0
