models/model_97.npz (npz, 192468 bytes, 4 tensors)

layer_1_weights f8 [30, 784]
0	0xbfc3a77350bc65ef	-0.15354768221077061
1	0xbfb13bb040e5cfcc	-0.06731702408234169
2	0x3fa32d30bf951fcf	0.03745415056852119
3	0xbfb06366ea9de191	-0.06401675441691725
4	0x3fab0afc8f272940	0.05281819579575364
5	0x3fca821c6548e280	0.20709567018072406
6	0x3fc654d6e2b20160	0.17446409291370468
7	0xbf85dfd6d629fb1b	-0.01068084565235732
8	0x3fb9d6f9f72f6b5e	0.10093652996822075
9	0xbf87ee78970e5c22	-0.011685316190591936
10	0x3fcf2c139be04e22	0.2435326109995098
11	0xbf7c875c5628191c	-0.006965027513166324
12	0x3fae4ef3806dd4e2	0.05919609968888452
13	0x3f9a971485bb216f	0.025966950094500726
14	0xbfbec527081912b0	-0.12019580791190765
15	0xbf937073ce6ef167	-0.018983659243290953
16	0xbf614e04f460bf54	-0.0021123978395038243
17	0xbf9394b7a33ceb7d	-0.01912199910951128
18	0xbfab19dc3fc61b01	-0.05293167379845976
19	0xbf82c545339b37e3	-0.009165325772666882
20	0x3f946997cb9da0f1	0.019934055140226673
21	0xbfc7b57643e2713e	-0.18522527994799448
22	0x3fb82eb439273802	0.09446264643995053
23	0x3f9237bcb54b0bbc	0.01779074532056389
24	0xbfb25ddcf154b559	-0.07174473659389004
25	0x3fb58aed8b31b215	0.08415112160009415
26	0x3fa763badb2a5275	0.0456827538047592
27	0xbfb985e7e69486de	-0.09969949130438802
28	0x3fbf7508b6411952	0.12287954759185496
29	0xbfb18a255840f0ec	-0.06851418881064192
30	0xbfc0359434d25089	-0.12663509921242547
31	0x3fb7f06c7c3970d5	0.09351232559987761
32	0x3fab7de2283c812f	0.05369478932539306
33	0xbfb94ecb83ea6d65	-0.09885856600378913
34	0x3fc2b940093373ef	0.14627838563220005
35	0x3fa047888771a489	0.03179575589531065
36	0x3fbede958e2a1ee3	0.12058386536420644
37	0xbfd175036bef8a37	-0.2727669290599439
38	0x3f940940a732b552	0.019566545681916132
39	0xbfa8afbd9195259f	-0.04821579362994587
40	0x3fa87d19ac4922d0	0.04782943943115969
41	0x3fac810c9a4cc14b	0.05567206748526362
42	0x3fb3545385ff76b4	0.07550546666558483
43	0xbfb758a1fcd96754	-0.09119617865635848
44	0x3fa5fa497241d8e9	0.04292516250363738
45	0xbfbb13bcb5120b92	-0.10576991482416379
46	0x3fb51a855ca58a5c	0.08243592750435752
47	0xbfab0478d0e5f774	-0.05276849317577517
48	0xbfacd08073f917cc	-0.056278242260802
49	0x3fc30df699522484	0.14886362539644804
50	0x3fc8e06290d10db9	0.19434768744586764
51	0x3f97017f4d658e9c	0.022466649149818538
52	0x3fbca3f7e64f52cd	0.11187695858763931
53	0xbfc04d69a9b9284a	-0.1273624495245847
54	0x3fbd360bcb6bed65	0.11410592762324752
55	0x3f9297ec55d6a7a0	0.018157665957609148
56	0xbf9f44fa81b2d640	-0.030536569753812026
57	0xbfb94e285b56365c	-0.09884884099866426
58	0xbf7831ddbac0d37b	-0.005906931048276993
59	0x3fa5a9d515457682	0.04231134304675967
60	0xbfc0b2a20116a4a7	-0.1304514413180062
61	0xbfb8808eab96cf75	-0.09571162881075941
62	0x3fb82bdf183e455b	0.09441942541004293
63	0xbfc2b029211fc680	-0.14600099675549316
64	0xbfa81e7065761a43	-0.047107231507699264
65	0x3fc74dff1b4391e1	0.18206776458022403
66	0x3fbcad5395b30407	0.11201975254790862
67	0xbf79b5ca9c3769ff	-0.00627688545815852
68	0xbf937064975c6332	-0.018983432520232664
69	0x3fc3032ce7f63db6	0.14853440595878248
70	0x3fbffd5ebbb99c78	0.12495987017756416
71	0x3f7fa9e5258b0789	0.007730383972274776
72	0x3f8f2e5041e53e6b	0.015225054751368114
73	0xbfc37eeedc44071e	-0.15231118922388814
74	0x3fb5430bc14842f9	0.08305428952031581
75	0x3f8884f5c600feaa	0.01197235117444902
76	0xbfcaa90e08e9c3e2	-0.20828414378368537
77	0x3f7031f0bac96472	0.0039538768292796
78	0xbfbd7453ca50b636	-0.1150562638219633
79	0xbfb4dd953de44967	-0.08150608788517887
80	0xbfb756c16ad42fc1	-0.09116753442884741
81	0xbfbda87a62278d1a	-0.11585202118253726
82	0x3f9f2db8a6cfbdd8	0.03044785040031947
83	0x3fafc9a0d1bdb5c6	0.06208517608943569
84	0x3fbc25852b8808cc	0.10994751274850784
85	0xbfc8461c29db5126	-0.18963958781990548
86	0xbfa9c263e285e5bf	-0.05031120433973112
87	0xbf89ab3de2692b8f	-0.012533648941049495
88	0xbfc57a22cfd0df6d	-0.16778979441891853
89	0x3fa34a3145cc4adb	0.03767541863466813
90	0x3f92e566c884c79c	0.018453222263992694
91	0xbfc4d6ded0f4b894	-0.16280732348372295
92	0x3fb68e2e9f1d5b6c	0.08810702690730715
93	0x3fc169736bfbca7d	0.1360306050551862
94	0x3fc87cd10fa5e1a6	0.191309101715672
95	0x3fd7ec56dbd81749	0.3738000056185809
96	0x3fd1127b95402414	0.26675309729813645
97	0x3fc7975b70a3c503	0.18430655479418342
98	0x3fdc30fd7953c4bb	0.4404901203952922
99	0x3fcb87b9cbe01df4	0.21507952170234967
100	0x3fc9755afee48cf7	0.19889390417038275
101	0x3fc39d16e71b29db	0.1532314899871626
102	0xbf9924212d4683c4	-0.024551885975259827
103	0xbf9b4055b205474a	-0.026612605085865305
104	0xbf9377b78d7043a9	-0.019011371619913984
105	0x3faf58f48427c364	0.06122554887031731
106	0x3fc479565c107e36	0.1599529218228654
107	0x3fc247fc6a5719f4	0.14282183830637474
108	0x3fa7aed45f65ca53	0.04625571884652815
109	0x3fa6123e69cbb03d	0.0431079391617861
110	0x3fb938eae0fe3b73	0.09852474205966448
111	0x3fc69d3d9282b744	0.17667359975660635
112	0x3fd1b5871e2274fa	0.27670457785445957
113	0xbfb857325ab5e292	-0.09508051600085768
114	0x3fb1a3d1fb173d6d	0.06890594844957372
115	0x3fa98a6368c8ce65	0.04988394407373845
116	0xbfb57eed026bba06	-0.08396798428632488
117	0x3f93c2861727416f	0.019296736872833117
118	0x3fc8258ac4a67344	0.18864569284496657
119	0x3fb868fbcad3c4a9	0.0953519220527307
120	0x3fd6d7141253b3df	0.35687734403364674
121	0x3fdbd4d65b8c22f9	0.43486555996109605
122	0x3fd3e786ad2802d9	0.31100623044771464
123	0x3fc02d350a585fe1	0.1263796139253364
124	0x3fd1bc0b58d7a47f	0.27710231472025976
125	0x3fd2e00bf9eca646	0.2949247303646171
126	0x3fd3bc07d6fd82b7	0.3083514785303509
127	0xbfb5a9671a614283	-0.08461613077202838
128	0xbf94c4546fc30ede	-0.020280188867004216
129	0xbfc03eccf95fae58	-0.12691652466252168
130	0xbfcfc8b097da71ae	-0.24831206717216275
131	0xbfa79b6116caf4e7	-0.046107324631046435
132	0xbfbce5859084a154	-0.11287722376130677
133	0xbfbcfddceb9960a0	-0.11324864150936031
134	0xbfd20d25af7618cd	-0.28205244192976126
135	0x3fb52cef3684a9ab	0.08271689492236216
136	0xbf962e855150bbcb	-0.021661837661834753
137	0xbfc48d123af9c930	-0.16055515174554946
138	0x3fb6fc34390ba757	0.08978582756722396
139	0xbfc1fe05f573cfb2	-0.1405646751878727
140	0x3fb1a80b0f877460	0.06897038582924742
141	0xbfa60ae9a1e13a36	-0.043052006731717204
142	0x3fbdd94ba9e042cc	0.11659691712726356
143	0x3fbfd4ac8efa04c7	0.12433889856949341
144	0x3fb59dcb4f085f42	0.08443899802693713
145	0x3fa60676ceabab93	0.04301806710085212
146	0xbfbd6a035fcdc48d	-0.11489888276061518
147	0xbfc99c95d51fbdcd	-0.20009110361523455
148	0x3f8bad2e4332166f	0.013513909745834966
149	0xbfc7420570585100	-0.18170230851740854
150	0xbf7a2bf12d3d4cc0	-0.006389562698888074
151	0xbf9ee4f92fb4eddc	-0.030170339142598354
152	0xbfcb5b261d2ad76d	-0.2137191431444835
153	0x3f561b882d9617bc	0.001349337564847882
154	0x3fd68954b9ef4968	0.35213201673209094
155	0x3fd03e8d10f5a5f3	0.2538178125019776
156	0xbf93dcf661a5cbde	-0.019397592267932022
157	0xbfa274190f90dde4	-0.036042006635792295
158	0x3fd9a60e8603eba7	0.4007602986090952
159	0xbfac22395c6f1e0b	-0.05494860890717853
160	0xbfd09c923bd4201e	-0.25955634920728865
161	0xbfbde174985ccbf3	-0.11672142715251237
162	0x3fcf2e1eee1dda20	0.24359499575412347
163	0x3f9b998521e4e4fd	0.026952820008976797
164	0x3fb607336a1d79b9	0.08604737606717706
165	0xbfa923dd595e8052	-0.04910175052577927
166	0x3fc09d21abce4959	0.1297952736754933
167	0xbf9f21aa005f743d	-0.03040185572887232
168	0x3f82d92ab361b824	0.009203275298400433
169	0xbfa5de15907a8ec3	-0.04270999325424676
170	0xbfae655530b39412	-0.05936685771465745
171	0x3fb221410adaa5c7	0.07081991686813814
172	0xbf9415149f38f357	-0.019611665933769142
173	0x3fcb092a81ac634a	0.21121722537716386
174	0x3f9eb6e742de87ca	0.02999459596288271
175	0xbfcec9e1d70cdfa7	-0.24053595543386772
176	0xbfdb303239161575	-0.4248166615946823
177	0xbfe21287b001937e	-0.5647619664783716
178	0xbfe41a79b0a82452	-0.628231854470082
179	0xbfdf1a6d492d9796	-0.48598796984003323
180	0xbfce3a216fb4dfa9	-0.23614900545521536
181	0xbfd0e7f92c85ec03	-0.2641585287853447
182	0xbfc1855cd0637652	-0.1368824021837321
183	0xbfb906eed49e9974	-0.09776203814417334
184	0xbf9fae79407596ee	-0.030939001616750277
185	0xbfd200d555af62dd	-0.2813008629578187
186	0xbfd13e47c5efb25a	-0.2694262917491749
187	0xbfce9eb6c0e7817b	-0.23921856326252197
188	0xbfd1c65601aab0e8	-0.2777304664875957
189	0xbfc6065d72cd18b1	-0.17206924539113325
190	0x3fa95befe8c2689e	0.0495295497541559
191	0x3fb3335d41166a57	0.07500250662853013
192	0x3fcdcfd63dcc197c	0.2329051782364323
193	0xbfb0605998bd1e2a	-0.06397018412564451
194	0x3fc6c47b86d2baeb	0.17787117083704315
195	0x3fbaf3a6ef89fdad	0.10528033588524606
196	0x3fb620e23d1aa28d	0.08643926612661286
197	0xbfb9ecb205af0dcc	-0.10126793516888383
198	0x3fb2954f8faeb6d7	0.07259080179093345
199	0x3facee0e6ccd124e	0.05650372579706141
200	0x3fd23b2b7e875570	0.28486144405663705
201	0x3fad82b2ba0d3c9a	0.057637772761716735
202	0xbfa96fa8b20d4f9e	-0.04968001531111031
203	0xbfb38bf531947e21	-0.07635433636141233
204	0xbfd2cb14ff3aba70	-0.29364514279124077
205	0xbfd04a2b93cb2eeb	-0.2545269912049963
206	0xbfe10c239bac8e7c	-0.5327318230160496
207	0xbfd1c0047811f218	-0.27734481549831136
208	0xbfd220cb1a11626c	-0.28325154824918886
209	0xbfc6107435b62191	-0.1723771345389307
210	0x3f952fe28f5ee3c4	0.020690479279185117
211	0xbfcc1f352b998799	-0.2197023833169254
212	0xbf9ac4067cae892d	-0.026138402328464472
213	0xbfc2bb64a2ab7112	-0.14634378378730922
214	0xbfc6d21fdae050b0	-0.17828748881641365
215	0xbf8c0456646ffdb6	-0.01368014806757754
216	0xbfc2c32df46629a6	-0.14658140595959174
217	0xbfb202ac75aee65f	-0.0703532969772822
218	0xbfc35cc663ce993d	-0.15126876710309914
219	0x3f9cf643ee868200	0.02828317778915057
220	0xbfadd2b3e9f7e1ee	-0.05824815970476381
221	0x3fbf93de2bfcc09c	0.12335003446492226
222	0x3fb4537436f92755	0.07939840643044012
223	0xbf8c5cf5ef518d02	-0.01384918343155173
224	0x3faf13c9fc72b0a0	0.060697853151709724
225	0x3f74c7174c157ac3	0.005072680477808236
226	0x3fc25f720d28f5aa	0.14353776590898565
227	0x3fa6fa8bee86da59	0.04488026892379499
228	0x3fa479aa8ef5c06e	0.03999073977581778
229	0xbfc3be5f7158f56e	-0.15424721750779774
230	0xbfc30d26fe83d138	-0.1488388769863691
231	0xbfc6167d43ab980e	-0.1725613193913777
232	0xbfd41e9a32eed5e1	-0.31436781858368873
233	0xbfb580cd573b531f	-0.08399661426240045
234	0xbfc79858a0e5d861	-0.18433673721637248
235	0xbfdf04c3ea7ac8fb	-0.4846658506240968
236	0xbfd4f6435e65dd4f	-0.32753071039720266
237	0xbfc060301b7c6554	-0.12793542234502786
238	0x3fca8bd3aee74692	0.2073921779652222
239	0x3f58f71d71911cb8	0.0015237605605465231
240	0xbfb56bc2e43d5805	-0.08367555687195256
241	0x3fb9dfef02765c7f	0.10107320604434909
242	0xbfd5e1037fe8ee02	-0.34185874453734766
243	0x3f942462a4dcbda1	0.01967004901160652
244	0xbfa9835afc4cef0b	-0.04983028726425517
245	0xbfae7eec1c07b58f	-0.05956209032215575
246	0xbfce40007e95cc19	-0.23632818394580182
247	0xbfb5b09a36c53550	-0.08472598874251003
248	0xbfa2e099c60c834e	-0.03686981718624925
249	0x3fbff86a16513df9	0.1248842529760096
250	0xbfb54cf115be4347	-0.0832052877506274
251	0x3fb078e0ddd44d72	0.06434445777658995
252	0xbf90fa2f58765e25	-0.016579379820170232
253	0x3f87d30b6f7e867d	0.01163300451281945
254	0x3fba34945b0757bf	0.10236479971294353
255	0x3fbba2f3cee1458a	0.10795520592480137

layer_1_biases f8 [30]
0	0xbff6e6f96ffbe4c6	-1.4313902258275433
1	0xbfe9ba0c85e75214	-0.8039610495857823
2	0xc0024cc1eb83f509	-2.287479248013032
3	0xc004fc6a6e7183ae	-2.623249876822647
4	0xbffb1aab9e21a029	-1.6940113236432899
5	0xbfd9e051aa03b4e4	-0.40431634524322946
6	0xbfe5293cbf34a901	-0.6612838491903689
7	0x3fd599f6e29c33f0	0.3375222409238736
8	0x3ff8ef536288351a	1.55842913140379
9	0xbff5241c335c216b	-1.3213159567113404
10	0xbfc57764a8a0ac19	-0.16770609124918748
11	0xbffbb1affe8f1e03	-1.7308807319367367
12	0xbff3aba58c170366	-1.229405925012736
13	0x3ff1c87b68a957d6	1.1114458168353756
14	0x3f9fcaee2a1a671b	0.031047555274745436
15	0xbfedd0331c3817c3	-0.9316649962572615
16	0x3fe483277eb71b69	0.641010043612238
17	0xbfd65ecddfeb4a0f	-0.3495363890371274
18	0xc003928e287e55c5	-2.4465602077059168
19	0x3fe03d725d92d111	0.5075008227927659
20	0x3fdc0602a5c4001e	0.4378668421559285
21	0x3ff3cecef6b51eec	1.2379903447162475
22	0xbffbda33c3883b52	-1.7407720220541774
23	0xbff8462536e8c242	-1.5171253342524698
24	0xbfa246fc8de2711d	-0.03569783431996341
25	0xbfedcb54483ea7b5	-0.9310704623251157
26	0x3fe491846b49345d	0.6427633376530469
27	0x3fe36e24c43b554a	0.6071952660228501
28	0x3ff4cb5ed0165be9	1.299650967446491
29	0xbff2657f7461f7d6	-1.1497797533224818

layer_2_weights f8 [10, 30]
0	0x3ff3ab02594e60c8	1.2292502869150201
1	0x3ffb48ce64d8038f	1.7052749575816255
2	0xc00536218ebec1b0	-2.651431193539075
3	0xbfe4abc329870f07	-0.6459670840344821
4	0xbffba611ffd8ce02	-1.728044509317329
5	0xbfdba0b2fad0d930	-0.43168329709750974
6	0xbf9119553378c340	-0.016698199526391067
7	0xc004ff464e1a490d	-2.624645815064588
8	0xc00896ad53455311	-3.073572779229274
9	0x3ff987cae063ac75	1.5956524625023836
10	0xbffd7c3481991d03	-1.8428235113549938
11	0xc0000f122fd2d0a6	-2.0073589073382037
12	0xc003047225a21818	-2.3771708431331824
13	0x3fe21003352093c7	0.5644546544686982
14	0xbff683b9c59d72b3	-1.4071595877968945
15	0xc0040e360e9e39df	-2.5069390432392846
16	0x4008a28b94d45488	3.0793677928255114
17	0xbfe5cb272ea9c75e	-0.68104895700365
18	0xbfdf6795e5ff1ac6	-0.4906973596629708
19	0x3fe255cb618da629	0.5729729562128273
20	0x3ff89bcf2b93829f	1.5380393697925354
21	0x3ff159bd4bb0dd48	1.0844090420412886
22	0xc005db7023f25038	-2.7321474846194427
23	0x4008fa6609b8bfa3	3.1222649344926636
24	0x3febb4b2f69fa194	0.8658079926363365
25	0x3ff3cf63d2376744	1.2381323062495122
26	0xc001ef2248119999	-2.2417646055575458
27	0xbfee95856b9b108d	-0.9557520963358158
28	0xc00108ba62bdfbaa	-2.1292617525318365
29	0x3fdc41933652f37e	0.44150238328057145
30	0xbfe38dce75bf6cce	-0.6110603618393726
31	0x3ff9215b2aeb6334	1.5706435848753246
32	0x3fff8a0d18d0a618	1.9712038964593201
33	0x4005bf0924ae6c80	2.7182791581849983
34	0x4000644cb8c7ed27	2.048974460221547
35	0xbffc770fa13ba619	-1.7790676401294887
36	0x4011ac65d7db427d	4.41835725093608
37	0x3ff15b72a0ec1513	1.084826115228968
38	0x3ff1b28e33030b6d	1.1060926430370401
39	0x3ff23a49a6830bef	1.1392303947802664
40	0xbffa48caadbbffd2	-1.6427714144228855
41	0xbff6b30addaaef42	-1.4187115343947458
42	0x3fdb62957fa15e2b	0.4278920885458059
43	0xbff8aaeeda086e45	-1.5417316929732732
44	0x3fb55818a7d2b932	0.08337549302334393
45	0x3feab73b970b28ca	0.8348672819204463
46	0xbfca1a4599dcce16	-0.20392675412004796
47	0xc00067eb66477e4a	-2.050741957718661
48	0x3ffc20df054668fc	1.7580251890236118
49	0xbff6ce5d0095fb54	-1.4253816626439475
50	0xc0102848ea74d04b	-4.039340651874293
51	0x3fdb6f44352c1218	0.42866616432755356
52	0xbfd1a90dfb02bad1	-0.2759432746196753
53	0x3fc28af0c01994e8	0.14486512546424213
54	0x3ff200436efed1f7	1.1250643096692536
55	0x3fc08b679b078799	0.12925429410739467
56	0xbfe6c3308d356c64	-0.7113268621427662
57	0xc010f330d633fc8e	-4.2374909848432605
58	0x3ff48f509efa49dd	1.284988995558357
59	0x3fed72bb63798e23	0.9202553694598844
60	0x3ff0d6f044b2f902	1.0524752315100732
61	0x3ffc42e2a5c73d0e	1.7663294292177087
62	0x4000dc98710666cb	2.107712634094104
63	0x3fd13de58d21366e	0.26940287382317407
64	0xc0019426aedf17a6	-2.1973394071419134
65	0x3ffc4905e370d073	1.7678278812791433
66	0x3fc8374ad6f56cbb	0.18918738838224222
67	0x3ffd7625c6b5cb8c	1.841344619952653
68	0xc000998314a73fe1	-2.0749570478001123
69	0x3fd95e79d214f7c8	0.3963913489895927
70	0xbff0e7acd6302959	-1.056561314270388
71	0xbff563a2b2cad6a0	-1.3368250831676178
72	0x40006f25db56ce5f	2.054271424852956
73	0x40058a03e54694ae	2.692390242783026
74	0xc0115ebcaa1c33b6	-4.342516572924913
75	0xc009e4145e81dd31	-3.236366976106773
76	0xc0076bbba8290193	-2.9276040208353122
77	0xbfb6bf9af002ea4d	-0.08886116370823878
78	0xc010610c9bad4843	-4.094774658633528
79	0xbfedb0e8cb46e6d1	-0.9278453798535456
80	0xbfe13b81ac01cd98	-0.5385139808189932
81	0xbfe28d27abcf4189	-0.5797308307319763
82	0x400a0e93c9859191	3.257117819203082
83	0xc00329ba7e295d20	-2.3953752380727025
84	0xbfb63d1f94b369bf	-0.08687016849891104
85	0x400a080d0abb68aa	3.2539311254923478
86	0xbfe961ddd3755a59	-0.7931965951964443
87	0x3fe7aae9703b5796	0.7396132652308889
88	0x4001b7994480bc66	2.2146478034770096
89	0xbff8708d75189045	-1.527478654295025
90	0x3fefbff4bf09d233	0.9921821337907829
91	0x3ff335c1d6f079ff	1.2006243129795846
92	0xbff16e4963f0df16	-1.0894254592839778
93	0x40065ea15eb10225	2.7962062261360807
94	0xbfec46c4bf30b2c1	-0.8836387380775578
95	0xbfe186e6c60c17ab	-0.5477174633131104
96	0xc003f28caf14d70a	-2.493432395766722
97	0xbff749727ff6e330	-1.4554314612016235
98	0x400576a3812f9bba	2.6829290478376295
99	0x3fd0eb78c9ddc607	0.26437205995088714
100	0xc009e54e981be368	-3.2369663127432666
101	0x3ffb94ff3598b019	1.7238761991129705
102	0xbff5763e30caad5e	-1.3413679033208932
103	0x40046d1566a3e41d	2.553263475300368
104	0xbfa9cd6d97d04c7b	-0.05039541700548341
105	0xc01080c97f9cc3e3	-4.125768655722797
106	0xbff68739eebcfd14	-1.408014233180272
107	0xc00ad9146eb767bb	-3.3559960031243157
108	0x40041df507463448	2.514627510862315
109	0xbfe7caf65e2c79ef	-0.7435256804781697
110	0x3ff490fdf1b18b67	1.2853984299806258
111	0xc0012474a3a1a0fe	-2.142800596590063
112	0x4002250db8dd3391	2.2680925791268653
113	0xc00098a2c454e358	-2.0745292032628804
114	0xbfebe0282e0d11ed	-0.8711129092631019
115	0xc000868d9fd92f00	-2.065699814620416
116	0x400c695dd445df65	3.5514484962294994
117	0x3fd427de9c5951cd	0.31493344562957476
118	0xc00306ff3405f81f	-2.3784164490052855
119	0x4004edc8200c3f2e	2.6161043647515703
120	0x3ff32a58598941a7	1.1978381631380246
121	0xbfe79ad3d9c286a4	-0.7376498463747407
122	0xbff9615bfd9ba3c8	-1.5862693697510952
123	0x3fef455a039f0e21	0.9772157736519526
124	0x401119b7c0cdd277	4.275115025102983
125	0x4010f722bb8ea4eb	4.24134343202716
126	0x3feedbf2ff4a3185	0.9643492685441265
127	0xbfd8364bf18b932a	-0.3783140047874435
128	0x3fbf2f91b17c0a11	0.12181959708326696
129	0xc00cb7deb7441f67	-3.589780265585364
130	0x4001c1617d23ac6c	2.2194242264281936
131	0xc010b03bb9ca23ca	-4.172102835619578
132	0xbfe740ac3359f68a	-0.7266446116406808
133	0x3fee8c9540e130f8	0.954661013334344
134	0x4000c9f8a19a2667	2.0986187577407693
135	0xc00aa5813e827f6f	-3.3308129199576153
136	0xbfbd12ef80bf10a2	-0.11357018368932129
137	0xc000047625307d91	-2.002178469221413
138	0x3fc82612dd943fb7	0.18866191691676956
139	0xc00a81c0f7627f28	-3.313356335347539
140	0xbffba60d8bee0ddb	-1.7280402627956082
141	0x3ffc4fdbd2a82f09	1.769496748808651
142	0xc0046476fe2efde3	-2.5490550859537833
143	0xbff1327ed3f8a4cf	-1.0748279838683634
144	0x400612db54a5ffa5	2.7592074025305515
145	0xbfd3e4589aa5106b	-0.31081214048413724
146	0x3fb969e7f7b1d8a1	0.09927224919542478
147	0xbfe47ddee1321bab	-0.6403650663713639
148	0xbfdceb6c931df646	-0.4518691479387126
149	0xbff331c9048a4f1b	-1.1996545960764198
150	0x3fc449ae73f0208b	0.15849857960734356
151	0xbff2f128e42eb488	-1.1838768876434944
152	0xbff8dd694d1b1638	-1.5540555011697403
153	0xc010570caf24a34f	-4.085009323703004
154	0xbfe114815afe5663	-0.5337530877320201
155	0x3fd04913a4723769	0.2544602495116722
156	0xbfcdf5a637df35bb	-0.23405912140007765
157	0xbff31f4512aa7762	-1.1951342324386691
158	0x40015d298d46c9fe	2.1704894101360415
159	0xbffdb53fab99f103	-1.8567501738717176
160	0xc009171cd73d5f36	-3.136285478172705
161	0x3fea88fd1ba32dc5	0.8292222537797264
162	0x3feb4e88ab4c1752	0.8533366532944717
163	0xc00ecef0c29b4ac6	-3.8510451511041053
164	0xc00cf71fe7865711	-3.6206663215515467
165	0x40124d3608b5736f	4.5754014359234665
166	0xc0017184f0da7950	-2.180429345767301
167	0x40025cd98be6d7b8	2.2953368120024287
168	0xbffa5da77d4112f3	-1.6478648083440788
169	0x4005a4a22296d407	2.705387373187935
170	0x3fea7588d34ae8a4	0.826847469979175
171	0x4006802fb064b327	2.8125909596186776
172	0xbfff76e32b40b06f	-1.9665252389486587
173	0xc00af5e4ee7c811a	-3.3700655586000154
174	0x3ffa7bd0065c3a1e	1.655227684826634
175	0x3ff2aa63170ae388	1.166598405847454
176	0x4006ddffb7f05517	2.8583979006022093
177	0xbffecbda77b57cb3	-1.924768893826507
178	0xbfc5294cd31b5f03	-0.1653228789134503
179	0x40025c6c1d944883	2.2951280890347916
180	0x3ff789f664fbca2d	1.4711822456998889
181	0xc0035eb4c6d4e9b1	-2.421243241665444
182	0xbffe9577bf6f2d40	-1.911491153516934
183	0x3fe5e1a579430fe0	0.6837947243116069
184	0x3ff03bb0e5e68671	1.0145730000007485
185	0x3fe034cc13953efd	0.5064449675064392
186	0xbff70db9a0e94404	-1.4408508573144454
187	0x3ff54491de4c46ad	1.3292406734002882
188	0xbff8f6ea5de1f9dd	-1.5602821032804208
189	0x4008cf795a65d64f	3.101305681450675
190	0xbfe0cdbf0352f376	-0.5251154961512003
191	0x4007a6b4b42593b8	2.956399352452049
192	0xbfc66a55bb3822fd	-0.17512008325163456
193	0xc002f4b07b20f5c4	-2.3694772357400513
194	0x3ff6f408fff91119	1.4345788954679561
195	0x400b7aec859a928a	3.4350214422032126
196	0x4009e5d47bdfb547	3.2372216870923327
197	0xbff1b9670cbb53af	-1.1077642915090384
198	0xbff2717f12f26aeb	-1.15270907784605
199	0xbff9db74908c4a42	-1.6160779615789953
200	0xbfe4804f209b533e	-0.6406627308702821
201	0xbfdf2560dca91b0c	-0.48665639447101294
202	0xc005c98caab8176d	-2.7234128320150632
203	0xbfd0364f87e54c1f	-0.2533148600679755
204	0xbffca471420718c1	-1.790147073670184
205	0xbfd7d30d3fa7c07a	-0.37225657669387824
206	0xc0072d6054b168f6	-2.897156392730831
207	0xbff9ec01b8b4a142	-1.6201188292562425
208	0x3feaf06ee2dafb91	0.8418497496385148
209	0xc00ace7399ce8591	-3.3508064285421786
210	0xc00853dc8d6fc8db	-3.0409480142344427
211	0x3fe9359f601257c3	0.7877957226180502
212	0x4001dc261d56ef00	2.2324945728449848
213	0x3ff791ca5cd36de3	1.473093378640322
214	0xc0001ade3082e049	-2.0131191053333493
215	0x3ff45c4307caee0d	1.2725248627092498
216	0xbff7407b1d3ca647	-1.4532424108569033
217	0xc005c912f0613aed	-2.7231806544945045
218	0x3febce332382e10d	0.8689208692149194
219	0xbff2129c56c60764	-1.1295436277000244
220	0x4008b5c660831203	3.0887572803496837
221	0x400313c789930197	2.3846579311359153
222	0x4008643e8cf42d98	3.048947430803036
223	0xbfd42ff60b827709	-0.31542731403338614
224	0x3fd1b3690a28bfa9	0.2765753363810242
225	0x3fcd604a9877f7ed	0.2295010799861638
226	0x4002423c02a14fd7	2.2823410230139234
227	0xbfedc7f99901a0c3	-0.9306610096364455
228	0x3fd1fc23ed17f7f9	0.28101442483591615
229	0x3ffaf6f606641bc0	1.6852932214403467
230	0xc0066efb3c119192	-2.8041901295529863
231	0x3ff52b1e7533df66	1.3230270937183035
232	0x400c8f7fbb0d4e3f	3.570067845672184
233	0x400a2a2d6996ebed	3.2705944298918355
234	0xc0022edcbf3940c2	-2.272881978926393
235	0xbffd54e90a03e7b3	-1.833230055925452
236	0xbfe4251d85f6f610	-0.6295306793687718
237	0xbfe3067496702557	-0.5945380151980925
238	0x3ff23b6cc8e5fb8a	1.1395080421059185
239	0xc000d18a32651e6e	-2.1023143708333043
240	0xbffd48e25336af09	-1.8302939653903556
241	0xc006d9bef7bc496c	-2.856321273263509
242	0x3ff0321f22a1a20a	1.012236724165748
243	0xc00084969c43ca3a	-2.064740391558442
244	0xbff4cf494fd4922e	-1.3006070249913466
245	0xbff4a1011ddeba5e	-1.289307705573854
246	0xc00bb64a28dbc439	-3.464008635718099
247	0xbff947ac12713d23	-1.5799980850604889
248	0x400353ce738669a4	2.4159211182970513
249	0xbf62856c3192b9d0	-0.0022608864934092546
250	0xc011be3aa6f201d6	-4.435770615120836
251	0xbff0b8a8f10c9c08	-1.0450829902636105
252	0xbff63e4848f73ad7	-1.3902056551193505
253	0x4004806daaa4b58e	2.5627091723933466
254	0x3fe33ce16a76722a	0.6011817054127893
255	0xc0039c9ae55c0c2a	-2.451467315551345

layer_2_biases f8 [10]
0	0xc010009b5748c13f	-4.000592578712086
1	0xbff9c3bc3645b19e	-1.610286914826339
2	0xc00d984365906a3b	-3.6993472990700673
3	0xc0158c686bb0fc12	-5.387117083241735
4	0xc015ca26a5e0295c	-5.447413055235611
5	0x3fcc7be7d37e177c	0.22253129793915238
6	0xc00fe03f9d5f4fea	-3.98449633547897
7	0xc0163174bd4ac8d9	-5.5482968880553125
8	0xc01210b33f3e4d0b	-4.516308773210095
9	0xc002ddb8d6ddddea	-2.3582627092798605
