models/model_good_97.npz (npz, 637668 bytes, 4 tensors)

layer_1_weights f8 [100, 784]
0	0xbf7b3968ece310ed	-0.0066465471883854045
1	0xbf4c72aac73cda7c	-0.0008681615713389125
2	0xbf803256d22e3d44	-0.007908514298633158
3	0x3f82156096e6c241	0.008829836468835174
4	0x3f694ccd498fb09d	0.003088379814007848
5	0xbf436a5136add8f5	-0.0005925079870923432
6	0x3f86fd50bb5ae082	0.011225348203297129
7	0x3fa01346985d8312	0.03139706239631414
8	0x3fa03bd21ea171ef	0.03170639633092153
9	0x3f934588f3a70968	0.01881994235169185
10	0x3fb5e9107f75d65d	0.0855875312025431
11	0x3fbfd498e925ef72	0.12433772747129782
12	0x3fc3e33d472d992f	0.15537229514593195
13	0x3fc40da9b3d17267	0.15666695861991117
14	0x3fc9683623039e9e	0.1984927817313648
15	0x3fc1b683f599b668	0.138382430002298
16	0x3fa656b5feb6c181	0.04363030180263917
17	0xbfb5247b3594d92a	-0.08258791025295822
18	0xbfc30c18f2984de0	-0.14880668492752047
19	0xbfb88b3eb02c5d46	-0.095874708186206
20	0xbfb6104e06234c29	-0.08618629121637923
21	0xbfba9a3216fc8b34	-0.10391533909982514
22	0xbfb117f9fd46ae84	-0.06677210267542405
23	0xbfb3768e1a703a89	-0.0760277571246012
24	0xbfb25dc1bab68a10	-0.0717431145517724
25	0xbfab7b236c8fe8ed	-0.05367384624692471
26	0x3f6253d8ce815ace	0.0022372469430068436
27	0xbf89eba23c0223f8	-0.012656466919240814
28	0x3f74568d9a07732c	0.004965355998561443
29	0xbf77fc8d4bc18eb6	-0.005856086671062568
30	0x3f88c228bc96847c	0.012089079146621488
31	0x3f98875f2e253a98	0.02395390242719006
32	0x3f94cd2c14619e31	0.02031391977689462
33	0x3f9122cc00b8e6c2	0.016734302085956505
34	0x3fa2818dc1f4368c	0.036144666601200276
35	0x3fb183aaa871d47c	0.06841532337587525
36	0x3fb44c4ec2b6b09d	0.07928936246634284
37	0x3fb3dc9c59d120bf	0.07758500283046298
38	0x3fc24937bf0760bc	0.14285942866877643
39	0x3fc0c77f2419b3b5	0.13108815443720592
40	0x3fc6a3d61d19b360	0.17687488957326547
41	0x3fca70de50c531e9	0.2065694708238788
42	0x3fb674cca8f0ebdd	0.087719718213449
43	0xbfb6faff35d51a39	-0.08976740898388237
44	0xbfc76a87b7e164f7	-0.18293854216134495
45	0xbfc6eca3c6289a0e	-0.17909667182648586
46	0xbfd149a2dd6c520e	-0.2701193964324212
47	0xbfd1eab9a040f8a2	-0.27995148324760966
48	0xbfd176988d89553c	-0.2728635198776208
49	0xbfd0f370093f23ca	-0.2648582544612138
50	0xbfcc4df408c44a50	-0.22112894466461563
51	0xbfcaa2b85a0c5b81	-0.20809082409752125
52	0xbfc1e9ce94bbec43	-0.13994772207647274
53	0xbfad6aba48aa9167	-0.05745489251174512
54	0xbf8cb7451bf0e1b6	-0.014021434703054374
55	0xbf8c854bbd7ca69d	-0.013926116676503947
56	0x3f7137a85454171f	0.004203469788313346
57	0x3f940dfbd274cf58	0.019584593506081077
58	0x3f67e239786f086f	0.002915489432298072
59	0x3fab7310d01ee846	0.053612256436693914
60	0x3fb3a5dc67c723f9	0.07674958737983663
61	0x3fb9d85d4a9eabb3	0.1009577090432419
62	0x3fc11cffc57b5013	0.1336974825159137
63	0x3fc8bde623c0b4d6	0.19329525705089762
64	0x3fca0fee5d40b15b	0.2036111789069633
65	0x3fca28fd32b2c8dd	0.20437588668352805
66	0x3fd00b62b8e1d3ec	0.2506949239244125
67	0x3fc94f4ff4665cff	0.1977329200133013
68	0x3fc63c81fa672c43	0.17372154928884428
69	0x3faf581a69a62ac2	0.061219048878304885
70	0xbfbe69e7dabc9789	-0.1188034924531093
71	0xbfcc82b6108538bf	-0.22273898893985764
72	0xbfc5b51dea4490ac	-0.16958974779948244
73	0xbfc7f99d1f303ccc	-0.18730510733482786
74	0xbfd3edbbe186b79b	-0.31138512634321963
75	0xbfd489d85bbe095a	-0.3209134002610391
76	0xbfd486a0aabd2cf6	-0.32071701692321086
77	0xbfd25bfd087f9fe6	-0.2868645270341389
78	0xbfd25d5b62f90b13	-0.28694805779757465
79	0xbfcc1324f11a948a	-0.21933423779151823
80	0xbfc6391f10008a56	-0.1736182048926646
81	0xbfb3ffae2df77fa8	-0.0781201231216061
82	0xbf96987fc28a8357	-0.022066112755627056
83	0xbf8d0d4cd779fd89	-0.014185524297544177
84	0xbf4e927d61e443ac	-0.0009329902857492154
85	0x3f86671b3932ab5f	0.010938847239534586
86	0x3fa090b8d8c1cf14	0.032354141673662934
87	0x3fb5a790aea2fb82	0.08458809150304883
88	0x3fb77232c9cbfb34	0.09158627916984302
89	0x3fb0637048f0e72f	0.06401731282030874
90	0x3fbca2f978e7d95f	0.11186179353521684
91	0x3fc0ffc44fc2e094	0.13280538458434832
92	0x3fceb11b2c0ebe2b	0.2397798504948566
93	0x3fd16fca17cad529	0.27244808505504864
94	0x3fd1d9f675cb088e	0.2789283895800815
95	0x3fc47dd52aa1714d	0.16009010869573573
96	0x3fc5e2725af3fb08	0.17097310486857276
97	0x3f8ba859eaf289d1	0.01350469825985537
98	0xbfc7d1123c6efa3d	-0.18606784773688104
99	0xbfc6f3242e639d91	-0.17929508462041757
100	0xbf94c74f56991369	-0.02029155698825794
101	0xbf948f1225f8ead3	-0.020077022140166555
102	0xbfc401cce513ce26	-0.15630494294565372
103	0xbfcbb2cfb16c246c	-0.2163943878479445
104	0xbfd00b5a2ff4758e	-0.25069288905236753
105	0xbfd4247d2837322f	-0.31472710540109267
106	0xbfd438c56639db38	-0.3159650324154657
107	0xbfceac2e4ab67d07	-0.23962954185569904
108	0xbfbd5f002152f465	-0.11473084271979557
109	0xbfb202632e8cf0e7	-0.07034892927635249
110	0xbf94c7b0f7fb7deb	-0.020293011794704368
111	0xbf9719f5156eaa44	-0.022559956963656327
112	0x3f9b4fe070f79f89	0.026671893019652813
113	0x3fae16efb8ac4add	0.058768740933506904
114	0x3fb9229afcfe8870	0.09818428684823899
115	0x3fbf3c9687b18313	0.12201824963404943
116	0x3fbae329b0b0f10c	0.10502873004674401
117	0x3fa9c1aba0f54d88	0.05030571307966186
118	0xbf6a313a247b7979	-0.003197301444614439
119	0x3f5094eed65774bf	0.0010120708842500795
120	0x3fb96e5323d53e7a	0.09933967232540822
121	0x3fc1cb750a637251	0.13902152068375753
122	0x3fb49da60927c288	0.08053052638548241
123	0xbfa903038687b132	-0.04885111825191969
124	0xbfc27413e7bf66c2	-0.14416741195491595
125	0xbfb259106d63129e	-0.07167151136952518
126	0x3fa500d43f03b585	0.04102195042819815
127	0x3fd04e3f2976ec84	0.25477580117485155
128	0x3fc7dbd7af491807	0.18639656123031065
129	0x3f98ad5d1d2eb3bc	0.024098830133585145
130	0xbfbcaabefd2422ba	-0.11198037796215035
131	0xbfc0185bac733cfb	-0.1257433502237076
132	0xbfc9f2d24f76a69d	-0.20272282486012197
133	0xbfd518f254a6dbab	-0.329647619884265
134	0xbfd770f66593fc29	-0.3662696830724053
135	0xbfd04e92b7c7a3ba	-0.25479572245836446
136	0xbfc1258442ed7999	-0.13395741718245516
137	0xbfb2682d9a636b3d	-0.07190213221785498
138	0xbfb155552c2f2a9b	-0.06770832375256434
139	0xbf9b7cc8482eba38	-0.02684319439475244
140	0x3f8c17c2ab4c9bd5	0.013717194416654902
141	0x3f8f21cf2c1dbf93	0.01520120480901691
142	0x3f90dd503a8f5169	0.016469243597229708
143	0xbf94f1ec76e73265	-0.02045411563612944
144	0xbfa18448c16e0382	-0.034212373363522466
145	0xbfb4bac46b61f7f4	-0.08097484227798174
146	0xbfc1ab25ecb50460	-0.13803552682842035
147	0xbfca52b03237f2b5	-0.20564844562604426
148	0xbfca8189af0a23c8	-0.20707818075996287
149	0xbfd45a9f3bcbceee	-0.3180311283060594
150	0xbfdc739e98808643	-0.44455685513284865
151	0xbfdc8497950b85c2	-0.44559278063942653
152	0xbfd3f594daf3ca1f	-0.31186410314617946
153	0xbfb7f5ca4614e0f8	-0.09359420977569133
154	0x3fb851c498bd85c7	0.09499767998706608
155	0x3fc2b4ac0000ce75	0.1461386680617697
156	0xbfa510f09ca4a41c	-0.041144866105533334
157	0xbfccc0a9c65b4163	-0.2246296137368616
158	0xbfce8823c7bbba8f	-0.23852965595820705
159	0xbfc526bef54700c5	-0.16524493194993375
160	0xbfd01772e487ce33	-0.251431201147372
161	0xbfd52e44e286319f	-0.3309490406179751
162	0xbfd4c69e406ae6a5	-0.32462269106654623
163	0xbfcd65a7c9b6c3b0	-0.22966477727234524
164	0xbfc63a07320f5036	-0.173645877307196
165	0xbfbf922bb79ffb88	-0.1233241389563614
166	0xbfb3aafd2b73de5d	-0.07682783423285273
167	0xbf906c7316c06482	-0.016038702262538347
168	0xbf8eac07673039e7	-0.014976556622085148
169	0xbfbd2bdab30c41f9	-0.11395041343008207
170	0xbfb88173ad35cf30	-0.09572527865185232
171	0xbfa5d909a615c864	-0.04267149116903182
172	0x3faf705276036f13	0.061403824716505316
173	0xbf9d37c0e2e10f5d	-0.028532995078662683
174	0xbfb1f651ff0db081	-0.07016479946986644
175	0x3f94b168ae4d7b58	0.02020801128253011
176	0x3f986a3835ffdc75	0.023842695518365226
177	0xbfa92c5e1d28c988	-0.04916662317227166
178	0xbfaa1f8ea7d81dd4	-0.05102201269988496
179	0x3fd6879e9c5a5359	0.3520275618441722
180	0x3fdfc14a17079560	0.49617244957911133
181	0x3fe094ece41848df	0.5181793646791241
182	0x3fcd0c4e63fd59e1	0.22693805582339535
183	0xbfc3c68edeaa6a47	-0.15449701187465534
184	0xbfe08eacd5c9e0ef	-0.5174163985784882
185	0xbfe42729dbebcde8	-0.6297807021459763
186	0xbfe69436cb3f4ef8	-0.705592534034138
187	0xbfe0cf3802782141	-0.5252952621677097
188	0xbfde4c4360651a35	-0.47340473569457525
189	0xbfd915552f79857a	-0.3919270480747269
190	0xbfd4cd7a73f6ec75	-0.3250414020982995
191	0xbfd18b02da2ff65b	-0.2741095667587154
192	0xbfcc25c83f4ed9b9	-0.21990302172862444
193	0xbfc28c32c278e67a	-0.14490351196018364
194	0xbfb335dc05f87be9	-0.07504058023231121
195	0xbf848b80e78385ec	-0.010031706872214628
196	0xbfac744693e456ad	-0.05557461314508081
197	0xbfc5c08a2f13b560	-0.16993834780388806
198	0xbfca01e7b3a528d9	-0.20318313857780515
199	0xbf808f0e01aca143	-0.008085355211350126
200	0x3fbf0dcbcd01d405	0.12130426173264659
201	0xbf6132292f758130	-0.0020991138841709653
202	0xbf88abd721779be7	-0.01204650946506365
203	0x3fbd4c14b21a07db	0.11444215152917485
204	0x3fc986a485245d44	0.19942146779133385
205	0x3fbdf80eb488942b	0.11706630618626039
206	0x3fde7b0d4b6e76e8	0.47626049391133884
207	0x3febf1519d738dea	0.8732078623983714
208	0x3fe63976d434c44b	0.6945146698618684
209	0x3fc3fdd284130fec	0.15618354271839452
210	0xbfc3b92c2e2a454d	-0.15408851865917442
211	0xbfd5a5fcc6201f92	-0.33825606678191733
212	0xbfe0ce3953bc4857	-0.525173820062501
213	0xbfe81367571d47b3	-0.7523686124279635
214	0xbfe83f98827a0b24	-0.7577631519673997
215	0xbfe79152dba700fd	-0.7364897050938733
216	0xbfe1998b89bc5999	-0.5499932947303022
217	0xbfdcc4192d6829df	-0.4494688933779382
218	0xbfda9fc6d9afe25e	-0.41600199945927396
219	0xbfd8732b18068045	-0.38202931734304385
220	0xbfd24dcc6a8ed704	-0.2859984436612282
221	0xbfc4593d79b712d6	-0.15897339289781226
222	0xbfacf310601c760c	-0.05654193089706547
223	0x3f62e5d4f43bb37c	0.002306857992030618
224	0xbfaf49ae6351fb5e	-0.06110901796727462
225	0xbfc3222983d66315	-0.14948004662871797
226	0xbfbb38e3e0dd689f	-0.10633682479729821
227	0x3fc3592a9c89c64a	0.15115864413705743
228	0x3fb6f46a0b67470c	0.08966696527866364
229	0xbf944caefe12a349	-0.019823774583218854
230	0x3f99df5550870335	0.02526601127624702
231	0x3fc4aa02090bb785	0.16143823091209356
232	0x3fc5d2abb562b1e2	0.17049166065898108
233	0x3fd2c17ee0f4a573	0.2930600354034915
234	0x3fdbb4c753238059	0.4329088508511681
235	0x3fe0fd9c3aba25fa	0.5309582850470058
236	0x3fbb6683d7334cef	0.10703300479808651
237	0xbfd6ea7693700c69	-0.35806049726688244
238	0xbfe1397673f72353	-0.5382644905995256
239	0xbfe1937fe16c9fe8	-0.5492553141420986
240	0xbfe36f031f15a356	-0.6073012930984116
241	0xbfe29672676ce180	-0.580865098955698
242	0xbfdbedd0afd35e4a	-0.43639008684610714
243	0xbfdbc84fd809083a	-0.43410106751628386
244	0xbfd712debb9bd435	-0.36052673646128436
245	0xbfd8282f46c2a71b	-0.3774526778239406
246	0xbfd9ff71bc44182a	-0.40621608147955846
247	0xbfd9d6ead41182fb	-0.40374251088910257
248	0xbfcfdc0a835c6fbb	-0.24890262045016506
249	0xbfc29ad019acd17d	-0.14534951451936343
250	0xbfafa960da4c2108	-0.0618391291118901
251	0x3f7d6c71291f1529	0.00718349650737097
252	0xbf90b409146d81b0	-0.01631178080731538
253	0x3f800b203993b7c4	0.007833720929251949
254	0x3fb226ab4dd3ea38	0.07090254449932665
255	0x3fc805a337024092	0.18767204462028936

layer_1_biases f8 [100]
0	0xbfe4b08a2036566c	-0.6465502385278348
1	0xbfe300ef1a2e9db7	-0.593864012848761
2	0xc00e623f9773be62	-3.797972853870122
3	0xbfdd3260626ddf0f	-0.4561997376654156
4	0xc005040a33bed7f9	-2.6269725840202196
5	0xc00a219e8e6f8321	-3.266415703561862
6	0xbfef05ffa941c660	-0.9694822603034474
7	0xbfe604f6080f25d0	-0.6881055982022932
8	0xc00da4eaa0f4e91e	-3.7055256438008106
9	0xbff72a869df06a61	-1.447882286977482
10	0xbffe72666e744e05	-1.9029297175046633
11	0xbffa0e84e2473636	-1.6285446967116406
12	0xbfd0fdf5baa184e5	-0.2655004808967319
13	0xbfcc9e5436b8cfc4	-0.2235818164059521
14	0xc009c49cf50fca2d	-3.221002497238507
15	0xc00b8c50e05eb940	-3.4435136345774993
16	0xbffd372a5ebbdc96	-1.8259681416073241
17	0xbfce297993695a5d	-0.23564071367100584
18	0xbffb0d159a18dd1f	-1.6906944293421657
19	0xc0018c74c1e5a4a8	-2.193582072086958
20	0xc003e6937c32f3bf	-2.4875859931039197
21	0xbffeb3d9d7c61c74	-1.918908923021971
22	0xbfd066747a75be5f	-0.25625335654237874
23	0xbff5ff75b76754e5	-1.3748681225018171
24	0xbfd86ad496df4a23	-0.38152041181197854
25	0xc00c07faed846bcc	-3.5038965755497653
26	0x3fcbaa4c1048cfa1	0.21613455577027899
27	0xc00488b865ee8c67	-2.5667579615997513
28	0xbff86519d6ae2ca2	-1.5246828447296044
29	0x3fe68fff0073d452	0.7050776490056114
30	0xc00f79ad3428d1db	-3.9344123911816786
31	0x3ff61c117c675971	1.3818526134033073
32	0xc009adf0e5eb4196	-3.209932132951688
33	0xbfd829f2d762e9f7	-0.3775603392965929
34	0x3fe0e1173eb28c22	0.5274769043502412
35	0xbffb935b2b8d0591	-1.7234756184774123
36	0xc00f1c6c17ff8f2a	-3.88887804745345
37	0xc000b06d6335fd88	-2.086146140179782
38	0xc0020143e549666d	-2.250617781927579
39	0xc0035ed83a0ebb21	-2.42131085736709
40	0xbffe3b608cae3fd3	-1.889496373685678
41	0xc003779d48320edf	-2.4334054603840367
42	0xbff7c68728d78922	-1.4859687419307837
43	0xbfd48a16137e08e2	-0.3209281149248807
44	0xbfc6cb551a89e7f3	-0.17808021350702993
45	0xbff76c7b5cdbe914	-1.4639848353677438
46	0xbff9acc423d1a96b	-1.6046792411021567
47	0xc01138c399cb1c78	-4.305433657667088
48	0xc006d9af769de596	-2.856291701024655
49	0xbfecab3032249b9c	-0.8958970050197084
50	0xbff7b2f41c1a8057	-1.4811898324769766
51	0x3ff5adf268fa357d	1.3549675083807806
52	0xbfe8b699fa27b457	-0.7722902189103803
53	0xc002c8bf3a893623	-2.348020989715921
54	0xbfd138aaed76ca5e	-0.26908372106405476
55	0xc0081ce4eeaa62e7	-3.0141085286853584
56	0x3f432b383cc5f92a	0.0005849861714038219
57	0xbfd4179e828879b8	-0.3139416002976776
58	0xc003bbaf4390f670	-2.4666428831686105
59	0x3fcea1eb0a2ce89c	0.23931634899947063
60	0xc002c54d8b7df2f5	-2.3463393113910294
61	0x3fe32f38cede9d27	0.5995143928929892
62	0xc0080b1bfca6a00f	-3.0054244745588288
63	0xbfefbadbc96dcbfc	-0.9915598806531984
64	0x3fead8a8181e143b	0.8389473410649154
65	0xbff3601c6db10522	-1.2109646115134827
66	0x3fcb27bf6afc0fd7	0.21215050433977353
67	0xbffe87e08f1e4a6a	-1.908173140579175
68	0x3fd93eb4764edc54	0.3944522052146955
69	0xbffdaff52edfcf7e	-1.855458434202745
70	0xbfe4b8fc8d0b22d8	-0.6475813631778591
71	0x400bfb98290b4dbb	3.497848816544971
72	0xc0016563aa94611d	-2.1745065046817573
73	0xc0032062fc3fb31e	-2.3908137995662306
74	0xbfe2e3fd7a2e172a	-0.590330828316586
75	0xc007cab42c8c5a55	-2.9739764671642583
76	0x3fb48ca7ce0bebfa	0.08027123241838288
77	0xc00a98eb68b2c3d1	-3.3246677569918366
78	0xbff5c43ace4b0b55	-1.3604076441121908
79	0xbffb33e7c96e49aa	-1.7001722210303378
80	0xbff1c71f696b1c0f	-1.1111139409929398
81	0xc00d276416068ba4	-3.6442338677165527
82	0xbff5d98d95305b1c	-1.3656135394755387
83	0x3fd42fbb2132014d	0.3154132675336044
84	0x3fd2bfc42565a5d0	0.29295447971398136
85	0xbffc16c8dd1b04cc	-1.7555626522956116
86	0xc004049117924542	-2.5022298661721445
87	0xbfedb5ab5b6432d8	-0.9284264359463021
88	0xbfe6070dc9131739	-0.6883610656011349
89	0xbffc8de7495262ee	-1.7846444000371622
90	0xc0007b2f77e110b6	-2.060149132305095
91	0xc00f6eb484536a38	-3.9290552461582386
92	0xc00fd5ff2738054c	-3.979490572354427
93	0xbfe3387a5a7b9dad	-0.6006442801707884
94	0xbffc2fbf0a149df6	-1.761656798722354
95	0xc00d930f47aaf42f	-3.696806487946126
96	0xbfd40e59ba30d615	-0.3133758848447042
97	0xc001f906f1556612	-2.2465952734171504
98	0xc00bccbe8f81a48e	-3.4749728404463616
99	0xbffdd921c35398fb	-1.8655107145255545

layer_2_weights f8 [10, 100]
0	0xbfeb56caa8064858	-0.854344680951054
1	0xc004ddf1ec22ef80	-2.608371586624287
2	0x3fe0626dd8cd7280	0.512015269701422
3	0xbffd61933ea188d8	-1.8363220640681472
4	0x3fd64f7acbebd10d	0.34860105432677885
5	0x3ffd19979abb5a0f	1.8187480968678107
6	0x3fdf7baa03175257	0.4919228582560086
7	0xbfef25cd0ee98640	-0.9733643809560775
8	0xbffed5a3e92c75d8	-1.9271582706781967
9	0xbfc2afd753c82b85	-0.14599124518312237
10	0x3fc2bc7cedd339ce	0.14637719738534688
11	0xbff2cd375fe2e934	-1.1751016374169696
12	0x3feca52c6f385e3d	0.8951627895612045
13	0x3fed8f4733c74dbd	0.92374000657076
14	0x3ff3d78f6b69a321	1.240127009945532
15	0x4005606b6d5e08a1	2.672079901153737
16	0xbfc5308627436db1	-0.1655433360782417
17	0xbfe9bca4ae5e2371	-0.8042777448291486
18	0x4001929f7706492c	2.19659321773465
19	0xbffa7f8435e5a35b	-1.6561319451668257
20	0xbfd0691cc4eecab2	-0.2564155505344089
21	0xbffdc4d487633610	-1.8605542458129811
22	0xbfedfdb589130e91	-0.9372203519091774
23	0x3fcfad4ebfb7196f	0.24747642861457161
24	0x3fe14b75dc32eb86	0.5404614735374345
25	0xbfd74f29d70d7f1c	-0.36420675278894676
26	0xbfec9f5750797947	-0.8944508144157134
27	0xbfe3bf6d5f1f77f4	-0.6171175821179973
28	0xc006f49073478558	-2.869416142101425
29	0x3fd866d15447953d	0.3812754939120458
30	0xbfead3bf9888f029	-0.8383481959531355
31	0xbfd302d2a23e79d9	-0.29704728931565466
32	0xbff510bd0060fbb2	-1.3165864958570919
33	0xc00137c65650b150	-2.1522337668776927
34	0xbf9bbc8bc948e281	-0.02708643356365537
35	0xbffdbec1be5365bf	-1.8590714869118157
36	0xbff11ca5f8f453b2	-1.069494221189626
37	0xbff4b7bc35975b10	-1.2948572247893857
38	0x3ff81d1f414c69ed	1.5071098852846447
39	0xbffef5116519d776	-1.9348310422187445
40	0x4000a1f2cef1e334	2.0790764014785967
41	0xbfdc78b587ebe8a3	-0.44486749909959594
42	0xc001b21f8b34e87f	-2.211974227478151
43	0x3ff4bbe7cb20f6d2	1.2958753523557118
44	0xbff128bb7070ec9e	-1.072444380972946
45	0xc00160813f1fba5b	-2.1721215182836153
46	0x3fe60d7aadbd20a3	0.6891454118094952
47	0xbff90a34f51cf363	-1.5649919104318648
48	0xbfeaf6046247d1f6	-0.8425313872854179
49	0xbff1725134490bea	-1.0904094736476915
50	0xbfe5980af3cb7fac	-0.6748099099750013
51	0xbfd680556bc7d73f	-0.35158286595775573
52	0xbff9eeef64727221	-1.6208337711060568
53	0xbfeea7e08e276e77	-0.9579928184934506
54	0xbfe36a887a1e05cc	-0.6067545304396673
55	0xbfd7e40e52da0312	-0.37329443064668155
56	0x3fe6477534e22df4	0.69622288063823
57	0xbfe213dd5fcc4120	-0.5649248953868984
58	0xbff25ff89d95639d	-1.1484304576499433
59	0xbf9f8a6b3f36306b	-0.03080146382630781
60	0xbfaa996f55a3af07	-0.05195186539080337
61	0xbfc50deaf04ced9f	-0.16448723538802043
62	0x3ff85f8e52a4da4c	1.523329089000657
63	0xbfdad8852ca69c15	-0.41946534500533633
64	0xbff0e2a732295544	-1.05533523172683
65	0xbff429a2bc5bf213	-1.2601649625568185
66	0xbfbeda17de36b402	-0.12051533866060996
67	0x3fb6d0b15d3b7600	0.08912189985445451
68	0xbff6db258937de09	-1.4285025940024545
69	0xbfd0f91d86b71118	-0.265204793508262
70	0x3fcbfa899fa42661	0.2185833005426501
71	0xbff41be991a5ee96	-1.256814545572444
72	0xc001cda14124e129	-2.2254052247409573
73	0xbffcb57a0fb48f0e	-1.7943058598984325
74	0xbffcf5de7a820cff	-1.8100266252011463
75	0xbffaabcebe253589	-1.6669452121308004
76	0xbffb35daa0a90535	-1.700647952631994
77	0x3fed739d530f3e9a	0.9203631040818039
78	0xc00209e34de931f7	-2.2548280798712272
79	0xbff2d4eca10da2a2	-1.1769834796088294
80	0x3ff33aa1929ec82a	1.2018142440179056
81	0x3ffa6c641526c8e9	1.65146263372713
82	0x3fc3f160b19075fd	0.15580376310474256
83	0xbfd24362d24b45da	-0.2853629163410837
84	0x4002643a975203f5	2.298939878645337
85	0x3fd328692ea72394	0.29934148364969215
86	0xbfa772bb6ded289e	-0.04579721180796635
87	0xbfecd7bbeb2f0728	-0.9013347237998675
88	0x3fecec6a9e5529d5	0.9038594334063484
89	0xbff1d9b9902b8b7a	-1.1156554824489988
90	0xc0008a404ae4a902	-2.0675054408103515
91	0xbfeb919380fedb99	-0.8615205306476695
92	0x3ff0d14c90fb136e	1.051098409968485
93	0x3fce3ea4b91900c0	0.23628672636005454
94	0xbff208f979290085	-1.1271910412615693
95	0xbff2071fc71f2eff	-1.1267392900653588
96	0x3fed5b198569897c	0.917370567866143
97	0xbfd498851a945076	-0.32180907817497173
98	0x3ff44cd84e04ad9f	1.268760971793064
99	0x3feefea941cae556	0.9685865674029326
100	0x3fd8d22ce8bc17bd	0.38782808998109514
101	0xbf97234eb8eee842	-0.022595624959400824
102	0x3ff1146db663e47f	1.0674874424569507
103	0xbff8a2f43d1ca75f	-1.539783705442879
104	0x3ff57fd63f08ee12	1.3437101805019478
105	0x3fe6011cbc8554fc	0.6876357729003355
106	0x3ff66f81f77a2259	1.4022235552858062
107	0x3fe96b0f7f6e4391	0.7943189133530827
108	0x3fdbf684b34b9e51	0.4369212866717805
109	0x3fee0f8b6406f95c	0.9393975213677481
110	0x3fea60b8bcc9ea70	0.824306839683528
111	0x3fd36c2f57954dcf	0.30347808411644633
112	0xbfe1202dcee0842a	-0.5351780930105907
113	0x3ff6772aad51fc99	1.4040934343645743
114	0xbfdfca94ecb852df	-0.4967396079749004
115	0x3fe68d284807ef75	0.7047311217170164
116	0xc002aea8fbdd39e4	-2.3352832486045703
117	0x3fa835af10f0d169	0.0472845752887306
118	0x3ff1fe4951756821	1.124581640432105
119	0xbfe45596bb2d4d3c	-0.6354478507804866
120	0x4005265b0f4d9a81	2.643728370242855
121	0xbff3b9f374dd47f1	-1.232898193837624
122	0x3ff4ca4eea4c7229	1.2993916656770443
123	0x3fd7b47eaaa464b0	0.37039152778886386
124	0x3fdf04d4df8322cd	0.48466989352577344
125	0x3fef6df17b744fa8	0.9821708117692554
126	0x3ff1156dbec2c9a9	1.0677316142651796
127	0x3fefa684312aa972	0.9890767059599013
128	0xbfee289bf9dcabde	-0.9424571876637591
129	0xbff5e73b7fd79fc5	-1.3689532274092795
130	0xbfda07b64f9e223f	-0.4067207124249172
131	0x3feb6e1ef0178bb5	0.8571924866958996
132	0x3ffdd2564957fef4	1.8638518204679118
133	0x3fda18a4865b54cc	0.40775406952645876
134	0x3ff70d829d2c574f	1.4407983913019569
135	0xbfc4a4b165e7f2a5	-0.16127603031045115
136	0x3ffdb1085bb3dc97	1.8557208616382803
137	0x3fddbaf1ffd5d5d1	0.464535236205248
138	0x3fee360a89993868	0.9440968215437922
139	0x3fdade3e4e72367e	0.4198146596980691
140	0x3fdb9d3f783d8040	0.4314726518841816
141	0x3fc4ad3db9a7012e	0.16153689923340536
142	0x3fe62104ee90d092	0.6915306720243442
143	0xbfd0df99be7ef74b	-0.2636474952995413
144	0x3feb6174435ed7b2	0.855646258910147
145	0x3fde8be16ff47369	0.47728763516516054
146	0x3ff6fe00f3eaa522	1.4370126274100774
147	0x3fc6cfef654d10f8	0.1782206768640504
148	0xbfe92ddcfb0934ec	-0.7868485358282249
149	0xbfeb6b4a11636218	-0.8568468417752824
150	0xbff409dfd1429665	-1.2524107145522063
151	0x4006b35fef4c3496	2.8375853247767493
152	0x3feba658481dcaed	0.8640557678721429
153	0x400238edab62e169	2.27779706855306
154	0x3fe577695434ec5e	0.6708265919363716
155	0xbfbb20f4f89b1551	-0.10597163266637223
156	0xbfe90a1afb396b01	-0.7824835688328166
157	0x3ff39495e557a8bb	1.2237757643402307
158	0x3fe2d35619ec7f10	0.5882978922199715
159	0x3fe58914a88053a7	0.6729834834137493
160	0x3ff72311b3b60203	1.4460618038139053
161	0x3ff6743d74f065e8	1.4033789222652278
162	0x3fe3a3932b33a3ac	0.613717636469223
163	0x3ff794df4036de95	1.4738457210895934
164	0x3ffdfeab287e921d	1.8746749479115643
165	0xbff0240cef643b2c	-1.0088013983947333
166	0x3fdad3b3e8758a24	0.4191713113888531
167	0x3fe73309a16a2e99	0.7249801781303687
168	0x3ff6e779f9d5ab2a	1.431512809673857
169	0x3fe037ebd190483f	0.5068263142623052
170	0x40014001d14f6e42	2.156253466831715
171	0xbff40a03009e5bca	-1.2524442695773694
172	0x3feb399d33a52274	0.8507829674427527
173	0xbfde3d212670bb2a	-0.4724810481447316
174	0xbfefeb78c2b2e363	-0.9974941065512265
175	0x3fcb8e306aacffd8	0.21527676781442895
176	0x400275ef3b8a073a	2.3075852061746476
177	0xbfecdf035d8fc4a3	-0.9022232844710242
178	0x3fdc0d0c58efda5d	0.43829640088316585
179	0x3fe15fc8d7401baf	0.5429424480542958
180	0x3fe95e3d20deb5aa	0.792753757666721
181	0x3fd3bdbac3bcbc71	0.30845517268148287
182	0x3ff9cd5444c762e9	1.612629192988772
183	0xbff55500ca41cb9a	-1.3332527065910882
184	0xbfe6b29b3f74fd70	-0.7093025435823801
185	0x3fe7c28905461c9b	0.7424969771390296
186	0xc000b30619f5d666	-2.0874139812611245
187	0xc003bf8d1288ed9b	-2.468530793002811
188	0x3ff5a266794c64b3	1.3521485079020692
189	0x3ffe0da83b08d489	1.8783342653307804
190	0xbfe0dbc8cd4cef67	-0.5268291482711732
191	0x3ffd492ea29cbd59	1.830366740421445
192	0xbff41fcf4842add1	-1.2577660391497043
193	0x3fd84d41dbf5a7fc	0.37971540909222745
194	0xbff0054199f5f147	-1.0012832655039163
195	0x3fc354f42a5593a5	0.15103008334258763
196	0xbfc76595e5129f70	-0.18278764424507754
197	0x3ff18f9c38d3473e	1.0975610942591199
198	0x3ff409817158b105	1.252320711860251
199	0x3ff187c6eed56a75	1.0956487016143488
200	0xbfe52f18cdb7d11a	-0.6619991319589957
201	0xbffc5165d643243e	-1.7698725099201194
202	0xbffbbe4f7bb8ce26	-1.7339625199209734
203	0x3ff66c44c7328b0b	1.4014327794217845
204	0x3ff1c64c027d4bb0	1.1109123322719192
205	0xbfdc500a4784b547	-0.4423852632924831
206	0xbffa16747da2eee2	-1.6304821880029796
207	0xbffad647e7b64d03	-1.67731466782135
208	0x3ff46455e5399c44	1.2744959787467147
209	0x3fd2a796c0c543c5	0.29147881341219445
210	0x3ff3b0d52a6fd903	1.2306720407191853
211	0x3ff3c497b1ea64e3	1.235496230109043
212	0xbfc87d53442cae53	-0.19132462338289943
213	0xbfe453a39a8854dc	-0.6352098482335822
214	0x3feab4f44dafe198	0.8345891492199824
215	0xbff81c65784454e4	-1.5069327066351486
216	0x3ffe50c717b93622	1.8947211195658231
217	0x3fe7059fcee0d02c	0.7194365540112861
218	0xbffbe144d50fc26c	-1.7424972841946795
219	0xc00210f350432468	-2.2582765837183167
220	0xbfe79450b267283c	-0.73685488552406
221	0x3fc1e6eaaf5131eb	0.139859519580923
222	0xbfe6b80ffb1c81af	-0.7099685577887181
223	0xc0057d2c71216c15	-2.686119922478165
224	0x3ff63fc325bdd427	1.3905669664648117
225	0xbfcbcf8c5a7e771d	-0.21727137011196698
226	0x3ff60cfbf16804dc	1.3781699590620553
227	0x3f71bf9c8b32b0e7	0.004333125590317822
228	0xbff7649d5642e447	-1.462064110716044
229	0xbfd15041d51362a0	-0.27052350814987314
230	0x3fd856f249d3693f	0.3803067894892997
231	0x3fececc4a3c8efd4	0.903902358906175
232	0xc000ba2c8bb62303	-2.0909052767714242
233	0x3fe27862ea3a507c	0.5771956038247619
234	0x3fdef49b34acab4b	0.4836795820617012
235	0x40040aa361e7d812	2.5051944397810155
236	0xc0048c2ebaaef59e	-2.5684485039370903
237	0xc003bb3391668fd0	-2.4664069518494003
238	0xc00056f66692d2c2	-2.0424621594960124
239	0x3ff8e2b2fe00db96	1.5553464815145381
240	0xbfdd60b733635fc7	-0.45902805345894787
241	0x3fef1a76cd4f9c17	0.9719804773311606
242	0xbffa547153679122	-1.6456158884039458
243	0x40030dd8ca5a2cae	2.3817611511963923
244	0xbfc8de3e14e4c691	-0.19428230304906838
245	0xbfed6a05dea5b0a9	-0.9191922520235681
246	0x3fd70cafcacd5a6e	0.3601493340005736
247	0xbff9ffddf507664f	-1.6249675342027279
248	0xbfcb5b1867564ba1	-0.21371750875240728
249	0xbfd9b3b8622b70c8	-0.4015942534149528
250	0xbff7db85f1dcd1c9	-1.4910945365673902
251	0xbfc77577885e48d3	-0.18327230604751907
252	0x3ff9ceb1a6cc313e	1.6129623904735833
253	0xbfe7895554797103	-0.7355143213167427
254	0x3feaa5621e79c34c	0.8326883883692999
255	0xbff123a123f75164	-1.0711985974240514

layer_2_biases f8 [10]
0	0xbfbd42473b1652e6	-0.11429257576521543
1	0xc01e8d31b8d4ea90	-7.637884986873033
2	0xc0103b0fcdd69019	-4.057677475186233
3	0xc0128619e35bb9de	-4.63095813033439
4	0xc016f7e8ad005f7b	-5.742098525188221
5	0xc0197606f39d2edd	-6.365260893315022
6	0xc0140a4988fdeb50	-5.010046139238355
7	0xc01adb272faae520	-6.714016670995335
8	0xbfebc624c9b91408	-0.8679374637509918
9	0xbff668e871b56e22	-1.400612301039367
