models/model98.npz (npz, 637668 bytes, 4 tensors)

layer_1_weights f8 [100, 784]
000000 1b 69 ce ae b3 2a 52 3f 8b c1 38 8f 02 02 5a bf
       0.0011088137355047048 -0.0015873932833408734
000010 d8 57 49 33 eb ac 60 3f f4 2b 76 09 fc dd 64 bf
       0.0020355790859793825 -0.002547256717382757
000020 b6 cd 09 b8 66 78 64 bf 7f 6d ac e8 ef 0b 39 bf
       -0.0024988180378444315 -0.0003821812357942197
000030 fe 86 62 1a 7c e8 49 bf b7 1b 37 ff a1 0f 70 3f
       -0.0007906537982942106 0.003921158600355071
000040 b5 78 15 55 42 09 4e 3f 3f a0 c0 23 7f 02 43 bf
       0.0009166311157675829 -0.0005801316069709085
000050 c3 97 fe 39 87 12 47 bf dd e0 65 a8 84 76 56 3f
       -0.0007041130338520874 0.001371030377042052
000060 62 5f ec 95 fa 3f 4b 3f bc b2 21 93 0c 86 61 bf
       0.0008316014826474755 -0.0021391149139645387
000070 58 85 55 58 92 47 3c bf 81 17 2b 8b 6e 61 4a bf
       -0.00043151209714239113 -0.0008050718082237425
000080 9c f1 0d 73 78 1b 56 bf 5d f7 b0 cc 8f 5e 6b bf
       -0.001349322916410412 -0.0033409889779524708
000090 7d e7 28 da 34 67 55 bf 7e 2d 40 67 ac fb 4d bf
       -0.0013063446173320053 -0.0009150115788555816
0000a0 b2 d1 38 da bd e3 65 bf 25 e0 5d 03 c0 cb 03 bf
       -0.0026720722251189705 -3.775768020281037e-05
0000b0 2a 10 96 63 5f 73 4e bf eb 19 b9 1e dc a4 57 3f
       -0.0009292808310168478 0.0014431142434588827
0000c0 ff ac 1e 94 87 de 5b bf fa 22 31 a0 b3 9f 23 bf
       -0.0017010044107149123 -0.0001497179765428609
0000d0 bf d8 97 87 18 eb 58 3f 02 4a 23 f4 2d 6a 70 bf
       0.0015208949611156678 -0.004007510668275762
0000e0 53 f5 39 65 c2 9f 55 3f f2 16 a3 20 08 28 5d 3f
       0.0013198278801661203 0.0017795638437276243
0000f0 9d 42 f1 1c bc a9 55 3f 6b 18 1d 9e 83 33 49 3f
       0.0013222062150541121 0.000769080416127788
000100 2b e2 e6 31 44 fc 22 3f fe d2 51 3b 2b 48 22 3f
       0.00014484722573883507 0.00013947990160869528
000110 1a 7e 6a 00 75 3f 53 3f 99 18 a4 22 8f 58 69 3f
       0.001174797305487979 0.003093986092724665
000120 c4 2a 34 98 8a c0 3a 3f c1 ee 1e 1b 36 dc 50 bf
       0.0004082048764792285 -0.00102906497748638
000130 1e 95 e2 2b 88 b4 58 bf 06 b5 2b 95 dd 4c 6e 3f
       -0.0015078859137614485 0.003698761728961333
000140 5f 64 9b 09 e2 d5 52 3f 1d c3 60 05 04 cc 63 3f
       0.0011496264837005594 0.0024166182074839685
000150 b3 6e 10 9c 93 09 4f bf 49 db 1a b6 90 60 68 3f
       -0.0009471865415692976 0.002975733413076585
000160 46 d2 f1 14 69 e2 4d 3f e6 97 91 52 9f 49 65 bf
       0.0009119999975966762 -0.002598582436394092
000170 0c 9a 96 b0 5b 45 60 bf e1 cf 68 9c c2 e1 52 3f
       -0.001986197549473495 0.0011524582383914894
000180 23 3a fe e8 d8 1a 49 3f 0e ee b1 a8 cd 0e 42 bf
       0.0007661399013033126 -0.0005510811037220968
000190 b7 3d 05 6a b4 da 25 bf 86 5a e3 fa f3 fa 52 bf
       -0.00016673519440722564 -0.001158464681386613
0001a0 d7 48 fa dd 55 e9 26 3f 4a 7e 6f 06 47 bb 62 bf
       0.00017480061704994748 -0.002286566468214156
0001b0 67 dd 41 48 a8 27 51 3f 79 07 ff 39 2c c8 4e bf
       0.0010470527058979663 -0.0009393897962512852
0001c0 a0 e5 90 3d 3f 40 58 3f 4e 10 54 95 ad 5b 41 bf
       0.0014801614363605178 -0.0005297277045035549
0001d0 b6 e1 23 5e 6a 24 58 bf b9 6b be ed 42 3a 64 3f
       -0.0014735258815204827 0.0024691874695696695
0001e0 93 3d 31 4e 59 74 47 3f 8e d5 66 9c 61 e4 44 3f
       0.0007157741605485095 0.0006375767341554749
0001f0 44 f1 a2 7b d9 da 53 3f c0 ef 3f 65 3d 97 4b bf
       0.0012118457657797769 -0.0008420038016079198
000200 25 7c a6 2a 92 9d 54 3f f5 70 1f a0 85 05 91 bf
       0.0012582709701758424 -0.016622627161141563
000210 cd 2f 86 48 25 7d 85 bf 32 72 19 be dd fa 88 bf
       -0.010492602611314706 -0.012197239269135716
000220 b2 42 92 a4 3d 5e 93 bf 8a 7d c8 15 bb 93 80 3f
       -0.01891418759311376 0.00809427414156862
000230 77 e2 95 43 a2 6c 8d 3f d8 de 54 9f 52 4c 9b 3f
       0.014367358863397002 0.026658335661720794
000240 30 92 27 95 b8 c3 9b 3f e1 ce 92 76 7f b3 a5 3f
       0.027113803962395433 0.04238508531980557
000250 bf 60 d9 07 30 75 aa 3f 11 a1 9b 49 1a 4e b1 3f
       0.05167532058539014 0.06759800240582005
000260 f0 c1 e7 bb 37 ae a4 3f b2 e1 d8 01 e3 8e 94 3f
       0.040391675651225145 0.020076319682830586
000270 3e c1 2a aa e4 d0 89 3f 67 99 79 38 1a d9 7a 3f
       0.01260546345051294 0.006554701256027285
000280 79 5c 51 e0 08 15 75 bf d7 50 88 64 38 69 3a 3f
       -0.00514701335222078 0.00040300013327622175
000290 d3 57 80 2c 1b ad 56 3f 34 df 89 7d 93 1b 16 3f
       0.001384045159289017 8.433425626630243e-05
0002a0 35 69 10 2b 54 77 71 bf 31 11 71 a2 04 e0 6c 3f
       -0.004264191419702625 0.003524788905936792
0002b0 a1 73 1d 2d b4 37 64 3f 3a b8 2d cb a8 49 64 3f
       0.002467967898083193 0.002476529765252725
0002c0 aa ea 58 b9 65 12 56 bf 29 cf 7e c7 19 c3 84 3f
       -0.0013471597097935253 0.01013775005399216
0002d0 a3 7d 2c 91 74 e4 82 3f 94 22 c3 bc bd 1c 82 3f
       0.009224806480743924 0.008843881915155984
0002e0 86 13 22 38 07 f4 9f bf 3c 78 b7 5d 04 11 b0 bf
       -0.031204331208317913 -0.06275965965275615
0002f0 e8 2c 0d ac 67 85 aa bf 57 be 71 a8 3d ac c1 bf
       -0.05179904914128902 -0.13806887364215711
000300 cf 44 73 03 10 fd b6 bf db 01 21 e7 21 57 8e bf
       -0.08979892811045719 -0.014814629426951711
000310 5e 76 27 45 7e 8a a3 3f 64 7e 5c 6e 3e 86 b2 3f
       0.038165994588535965 0.07236089891784442
000320 a9 7d 2d 6c af 4f aa 3f 52 2e 6e 09 ab 07 59 3f
       0.0513892001679282 0.0015277071267715448
000330 a9 19 0c 22 0f d4 a5 bf 9d 33 3c 34 88 2b 78 bf
       -0.04263350763908431 -0.005900890395207717
000340 df 62 28 e2 26 a5 ae bf 9d 0b 22 71 c6 8e ae bf
       -0.05985375891413524 -0.05968303805368367
000350 fa 11 91 0a 02 ae b7 bf d6 31 46 3f e1 76 b5 bf
       -0.09249890096641158 -0.0838452128866217
000360 ac 55 07 c8 67 f9 9a bf 35 77 2e 98 34 84 79 bf
       -0.02634203108194348 -0.006229596564393526
000370 d0 db 5d 53 e0 97 4e 3f b8 a5 53 0e 03 bb 53 3f
       0.0009336324062435512 0.0012042550891301195
000380 0f 67 76 b2 e3 af 59 bf 50 14 70 56 76 e6 63 3f
       -0.0015678142170600406 0.0024292289049321694
000390 de 9b 3d 44 d0 a0 70 bf 2b 64 52 8c 79 43 61 bf
       -0.004059613744039374 -0.0021073698031384334
0003a0 51 bd 07 85 3b 87 16 bf 89 58 90 35 5f 77 9b 3f
       -8.593846110448623e-05 0.026822555202749263
0003b0 70 a2 90 1d 99 6c a6 3f ce 2c 0a 18 d3 0b 84 3f
       0.043797287806516816 0.009788178607115585
0003c0 77 b8 cf d2 fc 1f 87 bf 39 cf c6 4a 32 f2 a2 bf
       -0.011291480239347102 -0.03700406229782378
0003d0 98 83 b6 8e 14 35 63 bf 84 df 47 fa f8 b1 b2 3f
       -0.0023446465981610924 0.07302814588899592
0003e0 0a fd d2 8c c7 94 94 bf 0b 9a a9 39 fb 36 99 bf
       -0.02009879872343582 -0.024623799700203047
0003f0 5e 79 c5 1b 67 ba 9b bf 2d 54 90 2f c9 4a c0 3f
       -0.02707825762751647 0.1272822839970628
000400 98 65 fd 8b 79 2d a7 bf 17 36 b3 cc 64 d3 b3 bf
       -0.04526882013187644 -0.07744436261710806
000410 e3 0c 4b 19 77 87 a4 3f 16 3a 98 b8 f6 24 ad bf
       0.040096017682594874 -0.05692263606407637
000420 f5 f2 20 d7 1d 32 c1 bf 05 2b 01 c1 28 0f 75 3f
       -0.13434193615275772 0.005141410059944067
000430 cb 51 1b b1 6b f7 97 3f 61 56 b8 ba b6 c8 5c bf
       0.023404772457824834 -0.001756838270812543
000440 e4 ef 09 62 d8 ef 9f 3f c3 c4 25 95 70 82 a6 3f
       0.031188374503912444 0.043963926512228045
000450 39 55 a5 32 5e d4 83 3f 74 e2 79 ef b3 cb 30 bf
       0.009682403488720058 -0.0002562822623768731
000460 8f 2d f7 4f 13 cd 62 bf 53 d5 f6 2c 8a f2 34 bf
       -0.0022950532145153478 -0.0003196322768091637
000470 3e c6 01 7a ce 26 3c 3f bd 40 97 b5 7d c0 11 3f
       0.00042955914432871503 6.771819371143274e-05
000480 f2 3b 59 0f 02 f0 73 3f e8 23 78 de c1 7c a2 3f
       0.0048675613848692 0.036108072668930735
000490 d3 b0 82 6b 5b b3 af 3f 5c f3 76 06 9d 74 8c 3f
       0.061915261148301724 0.01389429737070607
0004a0 7a a7 df f7 8c 14 81 bf fc 0e a2 21 1c 3d 65 3f
       -0.008339978518012481 0.002592616027927151
0004b0 eb 5b 16 19 55 b2 a2 3f 25 c8 a9 4a f7 56 b2 3f
       0.03651681834451622 0.07163949559051781
0004c0 27 55 51 bd 34 1e a0 bf 1a 9b b0 2a 54 81 c7 3f
       -0.03148045359618328 0.18363430103746553
0004d0 cb be 27 a8 9c d5 ae 3f 84 53 28 f6 eb 90 b4 3f
       0.06022347977329686 0.08033633002953705
0004e0 c5 3c fc 8d 20 46 c5 3f ff 59 19 f4 ae 1e b7 bf
       0.16620261128307426 -0.09031194171380007
0004f0 6f d4 67 25 05 da cc bf 8d 25 70 22 5a c5 c0 bf
       -0.22540344549603072 -0.13102270776316197
000500 95 3a 93 a9 f5 73 a3 bf eb a9 c8 10 ba 3a c0 bf
       -0.03799407668122005 -0.12679220027469226
000510 2c d4 10 c2 df 0a ac 3f 3d 98 5c 53 37 44 c1 3f
       0.05477046245543024 0.13489429064174088
000520 29 a2 60 37 f9 2a b2 3f a8 2f 2a 14 d3 44 ac 3f
       0.07096822359074707 0.055212589465639283
000530 42 3f 97 9e 46 3f 63 3f 6a 96 d2 30 85 7a 5a 3f
       0.0023495082175272472 0.0016161251726684264
000540 1e 2d fe 28 76 49 20 bf 1c 0e 53 33 c2 00 6b bf
       -0.00012425963768367907 -0.0032962601640933575
000550 0d 80 98 67 f5 ec 71 bf fd b5 cb e4 f3 79 37 bf
       -0.004376371967310899 -0.00035822109639024863
000560 d2 bd b8 c6 18 5a 7e 3f 4a cc 03 5f 78 50 b5 3f
       0.0074101417372242784 0.08325912780473846
000570 67 2e af 80 5d 47 c8 3f c8 95 ab 04 84 74 b4 3f
       0.18967789443410085 0.07990288843173865
000580 cf f8 14 98 f2 d6 b4 3f 51 90 ea 0a b7 ea c3 3f
       0.08140484059274232 0.15560043366451962
000590 89 d7 91 f6 de 96 c4 3f e6 02 8b 33 49 ba c3 3f
       0.16085421599899188 0.15412249581097298
0005a0 96 d2 c5 6a 7f 24 6e bf 5c 2d 59 d6 09 1a c2 3f
       -0.0036795128455032284 0.1414196297285838
0005b0 53 ec 5e e3 c1 76 a4 3f 26 ad f0 bd 5e f4 a4 bf
       0.03996854687235243 -0.040926895795872206
0005c0 dd 76 00 9d 25 0a ab 3f 6c 4a e1 86 eb 02 94 bf
       0.052811789908657515 -0.019542389018463543
0005d0 60 d6 f5 19 85 d0 ba bf 6c 32 46 1c b6 0e c6 bf
       -0.10474426158710903 -0.17232395535065181
0005e0 39 36 d6 73 ea 6d b1 3f ef ae 95 85 30 59 62 3f
       0.06808343246503847 0.00223979451100386
0005f0 a4 b9 f5 bb 87 f9 88 3f 61 5b 92 bc b5 48 92 3f
       0.012194691108302909 0.017855491289619056
000600 d0 0d 7e 77 2b ff aa 3f ae bf 69 cb 7c 65 a8 3f
       0.05272804101607742 0.04764928801603162
000610 43 29 f1 7f f7 fa 9d 3f c9 ef d9 eb 61 2d 74 3f
       0.02927767485042777 0.004926092629485576
000620 89 18 e4 a8 59 c1 31 bf cd 57 4e 05 64 6d 4e 3f
       -0.0002709239860369047 0.0009285677320913732
000630 02 82 ea ff 50 58 93 bf 8f 8d 85 4a ea 64 70 bf
       -0.01889158784854495 -0.004002490234003799
000640 d6 42 c3 93 40 43 ac 3f 89 a2 76 1a ee 39 c6 3f
       0.05520059398407333 0.1736428860870272
000650 34 e7 cd 32 95 a7 ce 3f 92 50 f5 1d 8d 77 c6 3f
       0.23948922138861806 0.17552341425710388
000660 bf f9 08 4e 0a 43 c3 3f 91 97 69 9e b0 b0 ac 3f
       0.15048340616517739 0.05603553708787879
000670 a4 8f da ce 57 34 c5 3f b4 67 75 d7 2f ce c7 3f
       0.16565988159447642 0.18597982426109427
000680 39 a6 56 f8 f5 d2 c4 3f 3c 28 f9 44 f7 37 99 3f
       0.16268801332380337 0.024627555451196978
000690 20 3b 73 96 2a d7 d2 3f aa 50 65 99 59 1e ce bf
       0.29438271229166624 -0.23530120840098806
0006a0 29 a4 ec 5c bf 53 a7 3f 8d 00 4e 20 26 76 c3 bf
       0.04556081780749139 -0.1520431192147992
0006b0 b3 85 1c 47 67 e1 bc bf cb 5a f8 95 15 eb c4 bf
       -0.11281438337439091 -0.16342420408974187
0006c0 47 94 ec b1 57 53 a1 3f 33 9f 1c 86 34 c3 a7 bf
       0.03383897826123721 -0.046411172267026755
0006d0 69 06 b3 b6 90 d0 b3 bf bb 9f e3 26 43 d6 a5 bf
       -0.07740120373184713 -0.04265031671258109
0006e0 8a 84 a5 e1 94 80 b7 3f 30 37 b6 6a 19 ab bb 3f
       0.09180574902485908 0.10807951789157921
0006f0 8e fe df 02 2d b3 90 3f fb 7d b8 9e 16 64 5c 3f
       0.01630850153014634 0.00173284729942924
000700 98 87 5d c0 ba 7a 60 bf d8 30 18 4e 3d de 50 bf
       -0.002011646984940673 -0.0010295485193437173
000710 89 fe 74 2c d7 bc 8b bf 0f 6d 17 1b 68 fe a2 bf
       -0.013543778461666338 -0.037097218806332426
000720 29 52 8d 88 d3 c5 b4 3f a2 4d 26 f4 bd 6f c8 3f
       0.08114358981885829 0.1909100954186274
000730 7f 2e f8 2a 52 1e b5 3f e8 19 e7 79 cc 34 7a 3f
       0.08249391125735349 0.006398009047592336
000740 e0 67 fb 8c 4c 10 83 bf 51 53 a6 07 4f 41 94 3f
       -0.009308431675368156 0.019780382959271595
000750 e6 cc c2 f4 35 58 b0 3f 40 20 43 b6 78 9c bb bf
       0.06384598947152006 -0.10785631608735091
000760 63 64 53 39 cc 6a 97 bf 80 c5 a1 46 48 df 94 3f
       -0.022868338583837643 0.020383004485159173
000770 cd 2b 50 ff 79 17 c5 3f a0 ae 71 fe 9f 02 61 3f
       0.16477894751036928 0.0020764469987194084
000780 02 70 c8 fd 55 4c 97 3f 14 cd c7 46 bf 63 98 bf
       0.022752135863001406 -0.02381800527105067
000790 3d 6e 61 21 2a dd ad 3f 91 eb f8 1d 5a d5 a5 bf
       0.05832797677495847 -0.04264337173341127
0007a0 12 88 09 af 2c eb a4 3f a3 dd c3 78 8e be b6 3f
       0.040856739394044564 0.08884516189924922
0007b0 37 2a 57 86 95 4d c0 3f 2a d6 d7 e7 06 c9 b7 3f
       0.1273676782569326 0.09291117820961206
0007c0 f5 7d b8 95 64 dc c4 3f 35 2a 48 05 7e d1 c1 3f
       0.16297585783557592 0.13920569665818197
0007d0 2a 35 42 db 4e 7c 95 3f ce 44 46 4d d4 f9 51 3f
       0.020982010014042242 0.001097161603955055
0007e0 99 2c de 17 ab c1 f0 3e d8 a9 c7 96 01 55 66 bf
       1.598025982433842e-05 -0.0027260809931608336
0007f0 f5 d9 26 99 f9 2a 40 bf 92 dc a7 4b 6a 3f a5 bf
       -0.0004934042684031069 -0.0414994447091256

layer_1_biases f8 [100]
000000 a2 83 f4 d2 2b 6c d5 bf 33 af c6 5d b3 a0 df bf
       -0.3347272453411795 -0.49418338926146815
000010 dd f4 0c eb b4 73 03 c0 c3 30 3f 3a b9 14 f6 bf
       -2.4314974177674302 -1.380059459234915
000020 48 51 5b e1 ba c4 ef bf f5 85 48 50 05 f8 f9 bf
       -0.9927648927210067 -1.6230519424501584
000030 ad a2 6b 0a ce 65 01 c0 49 35 ec fa 04 80 e7 3f
       -2.1747093977067693 0.7343773747285606
000040 48 f9 69 6b e8 8c df bf 09 1f 26 df b3 b1 fc bf
       -0.4929753350223973 -1.7933844296221102
000050 c2 a6 a4 86 54 4d e4 bf 80 e0 57 95 07 de e4 bf
       -0.6344397191762357 -0.6521032254086236
000060 59 26 0f 57 fc e6 0f c0 50 e8 2e a2 18 5f dd bf
       -3.9877859879968978 -0.4589292129345539
000070 f7 46 a0 9f 88 0a 00 c0 de a6 1e 72 7c 65 fc bf
       -2.005143401221058 -1.7747768838693712
000080 63 aa 23 9f dc e0 f7 bf b0 5b 01 43 9b cb e1 bf
       -1.4923979011897692 -0.5561043080041284
000090 6c 04 6b 81 3f bc f5 bf 3b b2 18 d8 62 ee f9 bf
       -1.3584590011016884 -1.6206997338550895
0000a0 d3 1d 27 e8 05 c1 02 c0 ea e7 e7 00 0c 46 d9 3f
       -2.3442495476663026 0.394900322804118
0000b0 12 f4 ea e6 56 95 08 c0 56 f6 b1 e7 d5 55 ff bf
       -3.072919658704003 -1.958455948886145
0000c0 4d d1 7f 10 8a 90 e9 bf a5 60 2e bf 7d e7 09 c0
       -0.7988939592601497 -3.238032811739759
0000d0 ea 4b 15 f8 02 52 00 c0 03 62 60 06 65 15 02 c0
       -2.0400447255610645 -2.260446595970508
0000e0 e1 79 74 c5 1f 47 e6 bf de 5a 9f b9 7b d1 fe bf
       -0.6961821419279738 -1.926143384063543
0000f0 27 79 ee c9 37 20 ef bf ba 62 ef 26 67 51 cf bf
       -0.9726828521704974 -0.2446717205155176
000100 00 9e 7e 5d ab 21 04 c0 29 83 12 62 47 83 d0 3f
       -2.5164401344552516 0.25801262452482604
000110 ef 05 d5 c9 29 4e fc bf f5 f4 c1 a0 0f 0e fc bf
       -1.7690828212802179 -1.7534328727336377
000120 91 88 0a a2 58 e4 fb bf 79 3f dd dc f0 11 fd bf
       -1.7432485894901542 -1.8168800952443844
000130 81 d9 e3 de 92 58 ed bf 9f 6e 00 26 46 94 f0 3f
       -0.917062220890145 1.0361997112694679
000140 9f 46 ff 20 69 5d 04 40 e5 13 20 8d 57 8d d2 bf
       2.54561067370453 -0.2898768308808129
000150 9c 97 bd c8 c6 91 05 c0 e9 3d 64 2b bb 4b fe bf
       -2.696179931913276 -1.8934890456183615
000160 7c fc 01 67 dd 74 ce bf d0 be a9 5c 54 3b 09 c0
       -0.23794143228221631 -3.1539695014288114
000170 b2 2f e9 15 17 dc df bf 8f 32 ea cc fb c6 c5 bf
       -0.49780823840842026 -0.17013499742133262
000180 db 18 c2 1e fd f4 e4 3f 28 92 0e d7 97 ef 04 c0
       0.6549058533426221 -2.6169888306924527
000190 d8 f8 b1 08 0e bb ed bf bb 39 40 e6 85 6a 0a c0
       -0.9290838403537931 -3.3020132053709097
0001a0 86 80 8c c0 43 c1 ff bf 62 01 45 70 25 d2 f8 bf
       -1.9846837541045104 -1.5513052354363812
0001b0 ad 82 6a b9 f2 fc bf 3f 3e b1 43 22 79 bf f3 bf
       0.12495343233832541 -1.2342463816122087
0001c0 9c 6c 26 21 cd c4 f8 3f fa 42 fa 15 24 4f f1 3f
       1.5480471892285896 1.0818215235232729
0001d0 a2 75 5d 7a 7e 30 01 c0 1e 8d 01 6e 51 9d fa bf
       -2.1486787376185967 -1.6634077355491352
0001e0 a5 b6 01 e2 19 da db bf 47 9b 6f 8c ca 00 0f c0
       -0.4351868350121129 -3.87538633075329
0001f0 36 89 bc 60 72 c4 eb 3f 44 2f 7c 4f e6 82 04 c0
       0.8677303208717493 -2.5639158448956625
000200 34 38 10 92 25 d8 ec bf 3f 11 73 0b 24 64 ff bf
       -0.901385102539058 -1.9619484374280345
000210 eb 06 76 0f 6a df f9 bf 61 07 3f f2 96 b7 f6 bf
       -1.6170445064494128 -1.4198216879599033
000220 f2 10 6c f4 72 42 01 c0 83 fa c2 99 a4 7c f0 bf
       -2.1574458213309464 -1.0304304128946178
000230 7e 0b 82 be 5b 44 f5 bf bb 48 6f 6a 91 32 f9 bf
       -1.329189056560352 -1.5748457105260474
000240 f0 6c e0 dd fd 98 06 c0 4a 5b f4 d6 5c 43 02 c0
       -2.8247029623140563 -2.2828919213601795
000250 5b fd 98 24 9e 23 e1 bf d1 88 af 33 65 56 ea bf
       -0.5355978693768678 -0.8230463037000623
000260 67 fb 68 be 5f 2a ff bf 93 10 ad a1 cf da f2 bf
       -1.947845214642905 -1.1784206691236576
000270 79 ec 1f be a6 b3 ea bf 82 92 07 3b 86 26 db bf
       -0.8344300950406157 -0.42422633900267936
000280 b0 5c 6b bf 4f 94 d7 bf 19 99 49 2b 01 3d d4 bf
       -0.3684272164659417 -0.3162234232644479
000290 7e 56 bc 64 8b 1b ef 3f 57 b9 92 95 1e 90 00 c0
       0.9721123664373434 -2.0703708348657233
0002a0 b7 b8 ad 06 8f b0 f9 bf 06 10 96 ed 9b ad fb bf
       -1.605605150306969 -1.7298850327215418
0002b0 24 6f 91 6e 59 b5 eb 3f 66 7f 96 54 91 b3 03 c0
       0.8658873710187192 -2.462679539530586
0002c0 4d c1 dc d2 35 b1 b6 3f a3 bb 17 73 0b f4 f9 bf
       0.08864151380544634 -1.6220812316712248
0002d0 11 82 e4 b2 ef cb f2 bf 37 af e1 3b 42 88 0a c0
       -1.1747891414635243 -3.3165325811623023
0002e0 df 5b 9a 15 3c 90 09 c0 44 c1 ec a9 5c dd 01 c0
       -3.1954271018725957 -2.2330868983628154
0002f0 5e fd c5 ad 24 0a 00 c0 2b da 35 23 5c b6 f1 bf
       -2.0049527717634836 -1.1070214629559227
000300 cd ac 1d ce 80 3d dc bf c4 cf 54 47 3f cb e6 bf
       -0.4412538540697824 -0.7123104470433579
000310 11 bd d1 ef 26 ab fa 3f 7c 8f c4 70 42 17 f4 bf
       1.6667851798955022 -1.2556785969727278

layer_2_weights f8 [10, 100]
000000 b3 6a ce 79 5e ed dd 3f d4 63 e2 f4 72 c5 d9 bf
       0.467612856818657 -0.40267633356557764
000010 f3 aa a4 4c 2b 99 e2 bf 43 ae 65 79 37 ca fa bf
       -0.5811974045694498 -1.6743693105771775
000020 2e ee b6 06 09 8d d8 bf 54 72 0b cb 98 33 d2 bf
       -0.38360810905189424 -0.28439922169289855
000030 90 4c ad c7 e3 19 f8 bf a4 c7 d4 0c a3 52 e5 bf
       -1.506320743549427 -0.666337513981706
000040 84 71 bb 67 b6 95 ea bf 58 32 6d 9c ec f8 c8 3f
       -0.8307754541415737 0.19509656560912236
000050 59 c5 b2 a9 29 f5 f6 bf de 79 88 83 1a 84 e4 bf
       -1.434854185947492 -0.6411259240156217
000060 66 04 b0 11 37 d1 f5 3f 7f 1c 18 30 b9 f6 e9 bf
       1.3635779086037245 -0.8113676013316676
000070 75 0a 1e ba ca 51 e1 3f fc 9d 7b d3 7a f1 fc bf
       0.5412343630890307 -1.8089550267267205
000080 48 bd 8d 91 34 6e d1 bf 7a ac 7e ff 92 49 f3 3f
       -0.27235140051103146 1.205462453867567
000090 94 50 ab ba 29 64 e5 3f d8 bc 57 7a 72 95 df 3f
       0.668476929271963 0.49349653193980947
0000a0 20 be 3c 69 09 53 ec bf 65 e7 03 32 d8 c9 db bf
       -0.8851363234916256 -0.4341946113996669
0000b0 24 b5 39 c2 9b 22 f2 bf ad 06 c6 ea 07 61 d2 3f
       -1.1334493243151167 0.28717229773620084
0000c0 22 32 29 c6 0f b2 f2 bf 6e 1e 78 04 07 96 f2 bf
       -1.1684720745717034 -1.1616277861193356
0000d0 33 ab 64 52 77 de cf bf 26 8c 34 f9 34 54 ef 3f
       -0.2489766266165475 0.9790291659632018
0000e0 79 7d e4 18 ec 63 ea bf 72 38 84 44 cb 1c b5 bf
       -0.824697540872804 -0.08247061178937701
0000f0 8b 3b da 12 60 b9 f0 bf a9 7c f2 60 41 95 fa 3f
       -1.0452576385903025 1.6614393031120847
000100 6d a3 fe 7a ff 0a 02 c0 4a 94 6e e8 9f 2a d2 3f
       -2.2553701027831523 0.28385160158569944
000110 63 1e 2f c6 32 de 44 3f b2 de 0a 1b a7 10 e8 3f
       0.0006368396683393392 0.7520328071759279
000120 37 03 2b 04 93 76 d6 3f 34 03 4c 31 5e ed cf bf
       0.350987199850397 -0.2494313946445118
000130 f6 1c b5 27 a2 87 ed bf 51 46 50 62 c2 7c eb 3f
       -0.9228068137680612 0.8589794082819912
000140 ad 96 d3 12 05 eb cb bf 42 88 27 f1 4b 9a e3 bf
       -0.2181097356726033 -0.6125850400969812
000150 4d cc 64 84 2f 1f e2 bf 31 4a cb 03 79 21 ea bf
       -0.5663068376364976 -0.8165860246757061
000160 ae bc 0b e9 a6 c1 f5 bf 51 71 2f 51 37 f7 ed 3f
       -1.3597783187249592 0.9364277444506489
000170 8e 16 8b cf a8 0f f8 bf b5 1e 5d c6 59 bc bb 3f
       -1.5038230998192463 0.10834275334229455
000180 36 f9 60 b4 6e 0a f3 bf f2 42 59 d9 4f 69 e2 bf
       -1.1900469823882083 -0.5753554577914584
000190 2a 33 a1 0a c7 80 c2 bf 83 ed 0a 4e fa 21 e4 bf
       -0.14455497759845432 -0.6291476749678825
0001a0 da 05 45 23 49 9c f5 bf 23 c8 e6 be 8a 44 d7 bf
       -1.3506556871146729 -0.36355847017978443
0001b0 b3 36 12 ef a3 f2 fe bf 89 da 76 4f de 15 e7 bf
       -1.9342383707729993 -0.721419482425362
0001c0 67 7b bd f2 0a 7f c4 3f f6 a9 16 ae 14 c1 bc bf
       0.16012703754946786 -0.11232117891510271
0001d0 d6 20 f3 72 5e 71 c3 bf 52 a7 7b 5e 26 f8 a2 bf
       -0.15189724552897726 -0.03704948333127213
0001e0 62 3d d4 d2 64 ec de bf 60 9a c5 49 3f 97 f1 3f
       -0.48317833508277463 1.0994255906786279
0001f0 ec 20 0a 7a be 75 e0 bf c9 86 36 9f 7d 42 ca bf
       -0.5143730529389621 -0.20515413545677166
000200 c3 40 22 fb f1 0f f4 3f 8e da 59 fd 1b 5c e7 bf
       1.2538928804315652 -0.7299938152562662
000210 ce 17 48 db 82 c9 f0 bf f8 b1 cf cb 42 e0 d8 bf
       -1.0491970601737992 -0.38868780044029405
000220 0c 38 b2 ed cd 9e f4 bf a3 06 d5 14 0d f9 da bf
       -1.2887706074720908 -0.4214508727492136
000230 af 71 02 a5 a9 08 d2 3f 14 1a e0 b7 8b f3 a0 3f
       0.2817787276669845 0.033108106799819265
000240 f2 f9 cc 27 2e 19 f0 bf 77 87 55 0b ee 0c e0 bf
       -1.0061475329126748 -0.5015783521050555
000250 8c ce 21 b0 b8 0f cf bf 6e ad 0a e1 b9 2f f1 bf
       -0.24266728019903316 -1.0741518774692298
000260 81 1e 6a 00 ed fc 93 3f 11 92 7a 91 d0 fa ef 3f
       0.019519522810269144 0.9993670312292712
000270 55 55 21 95 bf 4e e3 bf 7b 08 b2 70 84 43 ae bf
       -0.6033628380488759 -0.05910886645962506
000280 29 06 75 a9 49 c7 aa bf d9 e2 fa 61 d8 79 cf bf
       -0.05230169480865882 -0.24590592178517204
000290 b9 bd 2b b1 2a ff e2 bf cd a1 de 77 a9 57 f2 bf
       -0.5936482868545944 -1.1464018518837407
0002a0 2b 77 83 f9 2e 74 e0 3f 30 f0 de 4a 84 b4 d1 3f
       0.5141825555144569 0.2766428691063565
0002b0 ed 23 6e 6f 8a 0e dc bf f6 c6 62 7d 65 26 f2 bf
       -0.43838749772891 -1.1343741319546417
0002c0 3c c7 d0 49 75 11 d2 3f 07 9b 66 68 75 95 93 bf
       0.2823155613760837 -0.019124826905364347
0002d0 10 8e ab a0 e7 d5 f0 bf a0 35 80 c0 b4 b5 c1 3f
       -1.0522228504349904 0.13835772895292298
0002e0 d6 c0 be 8f c3 b2 d7 bf 99 ff 74 c5 7f 1b 79 3f
       -0.3702858833085093 0.006129740816788764
0002f0 6f 64 70 34 4f 13 02 40 6b 67 1e 4c 28 ba f7 bf
       2.25942841499323 -1.482948586787155
000300 29 cd b8 85 02 31 9d bf c9 47 9d ac a9 7a e2 3f
       -0.02850727025197589 0.5774734851240676
000310 55 62 fc d1 f5 ef e5 bf ce 8f c7 76 6e 58 fa bf
       -0.685542020920432 -1.6465897216630654
000320 f6 a6 51 87 8c 99 e6 3f 0b de 57 fb 4d 53 f5 3f
       0.7062437670658415 1.3328380411238665
000330 91 51 cc 44 97 18 ee 3f 8d 02 cb 67 3d c6 f1 bf
       0.9405018180573724 -1.1108984045423853
000340 bc ca 8d 63 8d 68 de 3f 43 87 62 57 02 40 f9 3f
       0.47513136598642425 1.5781272328826652
000350 b5 5e 1e 07 ea 55 de 3f f0 8f c3 d7 b8 4e f9 bf
       0.473993784858503 -1.5817192486074383
000360 b8 65 7b 03 53 64 d5 3f 48 b3 7c 8b ea a7 ee 3f
       0.33424830760995006 0.9579975818975095
000370 a3 9f 30 26 f3 a3 d5 3f 04 d6 24 e9 d3 21 d8 3f
       0.33813170175062107 0.3770646836086089
000380 59 ec a5 77 06 02 ea 3f 6d db c8 4b 09 3e d9 bf
       0.8127472245099724 -0.394411396034619
000390 f0 36 5b 60 60 bc cf bf 13 0f b6 61 9a 47 f1 bf
       -0.24793629364869885 -1.079981214222191
0003a0 93 8b e9 e6 18 13 f7 3f ba 96 77 23 00 17 e2 3f
       1.4421624202738925 0.5653076832502031
0003b0 04 98 f4 5c 9a e6 f2 bf d8 d3 40 ee 0b c1 dc 3f
       -1.1812995558807424 0.449282629651234
0003c0 0f 9f a9 7e ab d4 e2 bf 41 6e 7f aa 17 6e e9 bf
       -0.5884606813314991 -0.7946890192064943
0003d0 5b 24 f6 c2 25 8f e2 3f 3f fb 7a 80 c7 8f eb 3f
       0.5799740608064313 0.8613011845953692
0003e0 b9 bf ce 4c da 79 f2 3f b8 4b 0c b9 e1 71 e7 bf
       1.154749202756632 -0.7326515783519119
0003f0 a5 15 a6 a5 14 1b c6 3f 5a 84 07 1a 8e d4 f1 bf
       0.17270143593138446 -1.1143933312198642
000400 2b eb bf 41 74 ba d3 3f 0c 78 a9 25 d7 5c e6 3f
       0.308255256851839 0.698833058889933
000410 6c 14 ea d5 81 de e2 bf 83 1d 2c 1d dd a1 ba 3f
       -0.5896615198149795 0.10403234445776914
000420 e1 fa ff f9 f3 f5 e2 bf a0 08 73 f2 ff be c8 bf
       -0.5925235636530851 -0.19332885111186204
000430 50 b4 0e 52 3d 76 01 40 3d 46 3f f5 28 11 d1 bf
       2.1827341471421633 -0.26667236280363565
000440 f9 dc bc 05 42 8d ea 3f ce bb a7 90 77 3d e3 bf
       0.8297433960023276 -0.6012533021256503
000450 f7 ca e9 9e de ed f5 bf fc 68 a6 24 da 6b 97 3f
       -1.3705736358212428 0.0228723606938752
000460 a1 d0 6e 5e a9 55 ef 3f fa 3d 73 ca 73 1e da 3f
       0.9792067379371653 0.40810866137050505
000470 a8 46 90 0c 0d 42 dd bf bb 21 47 61 21 39 bd bf
       -0.45715643145477225 -0.11415299057910648
000480 af 5a 42 33 b1 4f f0 3f f8 7d 8e 4c f1 7a e2 bf
       1.0194561006843903 -0.5775076384779245
000490 51 06 8f ca 6c 0c a0 3f f2 fb 58 bc 4d b5 f6 3f
       0.03134479496612797 1.4192635876968294
0004a0 b9 3f 4c 16 28 75 f1 bf 38 c4 25 39 2d f0 f0 bf
       -1.0911026831636106 -1.05863687823536
0004b0 d9 34 1e 32 78 e5 f9 3f b2 0c 75 8a aa 2f 8b bf
       1.6185228307470452 -0.013274509764079265
0004c0 0d 14 41 15 b4 5a f5 3f 8f ac 37 7a a5 cf ed 3f
       1.3346443968050636 0.9315974604663938
0004d0 21 c1 ef 8c 99 ec f1 bf 82 8b d2 81 72 bd fe 3f
       -1.1202636246999378 1.9212517806233511
0004e0 23 c8 e1 10 07 92 fe 3f 6e 4a 52 73 1c 36 f7 bf
       1.910651269860417 -1.4507107262367316
0004f0 6f 44 37 e8 7f 68 f8 bf cf 4b ec 5e 5a e9 af bf
       -1.5255126067097782 -0.06232721718529143
000500 97 3c 1e 66 2e ac e8 3f 0a ca 89 83 3d 99 e3 bf
       0.7710182184690834 -0.6124560898882134
000510 ac b1 14 14 46 9c c0 bf a2 b8 05 55 4f f8 b7 3f
       -0.12976909618863652 0.09363265825024539
000520 ac 6e 8b 76 d8 ca df bf 11 d7 7e ff ab d4 e0 3f
       -0.49675571037890154 0.525960921301449
000530 79 aa 9b 01 cb 9d d2 bf 12 8e 4d d6 43 1c d9 bf
       -0.29088092000043947 -0.3923501580049741
000540 71 77 1c d1 06 cf f5 bf d3 cb 91 f2 b3 7f dd 3f
       -1.363043610420814 0.4609193676798757
000550 8a 13 ff ef 39 d6 f2 3f 36 24 cc cc cf 31 ea bf
       1.1773013472422655 -0.818580532069183
000560 3f e5 d1 57 0f 03 e0 bf b5 49 33 4e 9d 17 f3 3f
       -0.5003735270721917 1.1932652525616565
000570 29 e5 15 4e a2 14 f3 bf ab 58 a3 85 86 c0 f5 3f
       -1.1925375986305176 1.3595032901990105
000580 3d d4 5b 39 4d 99 ee bf 2b f2 e1 ee 5f 10 d4 bf
       -0.9562135811125995 -0.31349943474177405
000590 63 be 48 0c 1f b9 ec 3f 73 63 45 51 9e dc e7 3f
       0.8975978126454262 0.7456809604001208
0005a0 3b 76 7c 0b 58 d9 be 3f 4b 69 88 0f d6 f6 ed bf
       0.1205039051096372 -0.9363813689590555
0005b0 b4 3a e8 67 ef 40 9e 3f 83 6e d9 46 a0 18 e6 3f
       0.029544583050717235 0.6905061134124967
0005c0 57 cc d9 0e c7 f5 c1 3f cd 7a 14 7d be 26 c7 3f
       0.14031303620467625 0.1808698759786779
0005d0 c9 63 35 8c 27 21 d7 bf 73 88 64 55 64 98 d4 bf
       -0.3613985890602263 -0.32180126513606594
0005e0 fc 33 31 ec 9c 42 b3 bf 10 50 9e 04 01 38 f1 bf
       -0.07523518339549179 -1.0761728458792312
0005f0 60 55 6a 45 95 67 d5 bf 90 cb 66 bc ab 15 e1 bf
       -0.3344472101101328 -0.5338953666417741
000600 cb 25 86 c9 c5 b5 b9 bf 09 8a a3 76 46 56 8f bf
       -0.10042987985629918 -0.015301275725907908
000610 ce 73 ac 29 b6 52 d1 bf 6b 9e 9a 7a 65 09 ee bf
       -0.2706733138055001 -0.9386470217331867
000620 de 1d 60 8d 86 cc fe 3f 49 dd fc 75 45 16 e9 3f
       1.9249330065230121 0.7839686684082291
000630 28 cf 25 e7 2e cb f0 bf bc c1 7d 1a da 4f f5 bf
       -1.04960527698581 -1.3319951090635263
000640 a3 c5 e1 14 29 0b d3 3f b7 42 66 c8 9c 29 db 3f
       0.2975561813282985 0.4244148213411267
000650 c8 00 4c 57 8e e0 c7 bf d9 f2 d8 22 a2 21 f0 bf
       -0.18654040586989695 -1.008211265681146
000660 79 72 62 96 f4 87 f7 bf 3b 2b 3b 8b 65 39 ee bf
       -1.4706922411343426 -0.9445064277036644
000670 a2 61 c4 e7 de f6 f8 3f 79 dd ef 29 75 f3 e6 bf
       1.5602711728480263 -0.7172189539987094
000680 a5 14 c8 5d 55 84 c4 bf 0d 75 44 3f 78 14 a5 bf
       -0.1602884967725561 -0.04117179653460754
000690 a2 7a 8a 96 37 16 04 c0 34 ae ed 2f 12 d9 d5 3f
       -2.5108482132921646 0.3413739650775114
0006a0 4a 58 b5 97 02 f0 f7 bf 7d f7 f4 72 df 9f da bf
       -1.4960962225063832 -0.416007864248847
0006b0 0d 70 46 b3 ee a4 f0 3f 22 f3 79 93 45 c0 f5 bf
       1.0402667048392715 -1.3594413529201081
0006c0 9c f0 4d 96 23 78 e3 3f dd 6f e9 97 04 db fa bf
       0.6084154067643968 -1.6784711774880556
0006d0 54 97 06 bd 5c 63 c9 bf 17 10 15 c0 6a 6e 9a bf
       -0.19834479551098616 -0.02581183240296533
0006e0 32 f5 29 9a 47 68 f3 3f 36 c4 e2 f1 8d 7d fe 3f
       1.212958910181737 1.9056529472984614
0006f0 e2 39 e8 fd 44 eb c2 3f 6c c4 3d ab 4b 59 fd 3f
       0.14780485532578697 1.8343006791222036
000700 c1 99 fb b5 c2 20 f1 3f 17 0c 0f 3b b0 7b f2 3f
       1.0704981907561975 1.155197363565781
000710 8f fb f9 f2 88 e3 f4 bf 97 89 7f 4d 8b 7e f0 3f
       -1.3055505267400098 1.0308945681832478
000720 27 bd 63 54 48 a4 ba 3f 6e 52 52 61 0d dd d1 bf
       0.10406925258915987 -0.2791169596105537
000730 65 10 5e 29 53 c9 fb 3f ba 9e 45 6f f3 02 fe 3f
       1.736651574698976 1.8757204386292146
000740 fa 61 c5 36 e6 d9 e3 bf eb 28 b2 1c 32 c5 f4 bf
       -0.6203490323778731 -1.2981434937415155
000750 52 fd cc ba 2f 9c e4 bf 5c da 6f b6 25 af fa 3f
       -0.6440657280399285 1.6677605749552162
000760 65 e9 00 ed e0 36 ef 3f 5d 29 06 1a cc 59 f0 bf
       0.9754490498519713 -1.0219231621327574
000770 7b aa be 5c 6a b1 f9 3f 38 9a e6 13 9b f9 dd 3f
       1.605814325603801 0.46835972732006637
000780 d9 b3 56 c0 00 bd e9 3f 83 13 79 99 c8 e7 e8 bf
       0.8043216473212126 -0.7782938954847939
000790 fd ad d8 16 7e bd e8 bf 95 15 8e e5 ca 27 ef bf
       -0.7731314130991788 -0.9736074908729956
0007a0 25 85 27 32 7a 0d f5 bf b0 db 55 ae ab 66 f0 bf
       -1.3157903632312096 -1.025066071508018
0007b0 33 e0 e6 9f 75 e3 ea 3f 85 07 38 4a 72 3e ff bf
       0.8402660487254309 -1.952745714108887
0007c0 4f d2 54 2a e9 f6 f2 bf 3a d1 c7 73 52 74 e4 3f
       -1.1852809575622307 0.639199472555027
0007d0 2a d5 f0 2c a9 06 ee bf 0c 84 a4 31 a2 b3 b1 bf
       -0.9383130910634112 -0.06914724075296891
0007e0 a3 f1 fe af 30 24 f7 3f 22 ad 49 be 69 ad f1 bf
       1.4463354945029117 -1.1048371728055106
0007f0 25 18 08 d5 bf 8b ee bf cb 94 f5 96 2e b3 f2 bf
       -0.9545592461370275 -1.1687456032607766

layer_2_biases f8 [10]
000000 6c 25 07 53 bd 12 d9 3f 04 52 3c f9 46 a3 14 c0
       0.39176877124972154 -5.159450430208839
000010 e1 9f 23 b8 a7 76 03 c0 d1 31 9a fc 9e d0 02 c0
       -2.4329370866653197 -2.351865743117948
000020 5d 05 2d 38 72 4f 0c c0 6c d7 ed 89 d1 7e 14 c0
       -3.538792075036936 -5.123846202031796
000030 7b b4 7d 71 f3 28 10 c0 8f 67 6c 5e 5f c0 14 c0
       -4.039991162583756 -5.1878638032593605
000040 49 7b 96 bd 2d 67 00 40 99 bf 38 5c 25 32 00 c0
       2.0503802119778 -2.0244853215044256
